checkpoint_critic_01.pth (torch_old, 722896 bytes, 11 tensors)

fc1.weight f4 [512, 24]
0	0xbb37948b	-0.0028012122
1	0x3a1119a2	0.00055351306
2	0x3bda3698	0.00665934
3	0x3a75c9c9	0.00093760766
4	0x3be5c9c3	0.0070125773
5	0x3b19aaa5	0.002344766
6	0x3bda3698	0.00665934
7	0x3a75c9c9	0.00093760766
8	0xbb7121b3	-0.0036793768
9	0x3a001c70	0.000488705
10	0xbc910a40	-0.017705083
11	0xba267b4b	-0.00063507695
12	0x3bebeaf9	0.007199642
13	0x3b2513b7	0.0025188753
14	0xbc910a40	-0.017705083
15	0xba267b4b	-0.00063507695
16	0xbb9e02c0	-0.004822105
17	0x39e3ea29	0.00043471277
18	0xbc8abc87	-0.0169356
19	0xba75fb12	-0.00093834207
20	0x3bf618b2	0.007510268
21	0x3b0cc31a	0.0021478594
22	0xbc8abc87	-0.0169356
23	0xba75fb12	-0.00093834207
24	0xbba99107	-0.0051747593
25	0x3a26f283	0.00063685345
26	0x3cd5cc0f	0.02609828
27	0x3bb64a7d	0.005563079
28	0xbb9f971a	-0.0048703076
29	0xb8831f6e	-6.252421e-05
30	0x3cd5cc0f	0.02609828
31	0x3bb64a7d	0.005563079
32	0xbb17edba	-0.0023182468
33	0x3b0fe406	0.002195598
34	0x3c229bef	0.009924873
35	0x39967d24	0.00028703467
36	0xbb8ba0d5	-0.004261116
37	0xbb2494a4	-0.002511301
38	0x3c229bef	0.009924873
39	0x39967d24	0.00028703467
40	0xb9a4b268	-0.0003141344
41	0x3b3407d3	0.0027470484
42	0x3c6e160d	0.0145316245
43	0x3b3cfb30	0.0028836243
44	0xbb8ed97f	-0.0043594236
45	0xbb914166	-0.004432845
46	0x3c6e160d	0.0145316245
47	0x3b3cfb30	0.0028836243
48	0xbd30e0e6	-0.04318323
49	0x3ddbec1b	0.10738393
50	0x3c108bde	0.008822409
51	0xbdba7edb	-0.09106227
52	0x3dbe1c07	0.092826895
53	0x3d914ffb	0.07095333
54	0xbb945e47	-0.0045278403
55	0xbdba91ab	-0.09109815
56	0x3d5e7ae8	0.05431643
57	0x3e051f9a	0.13000336
58	0xbc5885bb	-0.013215478
59	0xbe22532e	-0.15852043
60	0x3c494f23	0.012286934
61	0x3d24edae	0.04026573
62	0xbc1d51fd	-0.009602067
63	0xbe225683	-0.15853314
64	0x3d61728d	0.055040885
65	0x3dcbd7a8	0.099532425
66	0xbc1631e8	-0.009167172
67	0xbeb78d23	-0.35849866
68	0xbdf46764	-0.11933783
69	0x3e2d2a7d	0.16910739
70	0xbca0eb78	-0.01964353
71	0xbeb78f80	-0.3585167
72	0xbc805133	-0.015663719
73	0x3b3171ef	0.0027075966
74	0xbacec0d2	-0.0015774018
75	0xbc247e19	-0.01003983
76	0xbafa0b0e	-0.0019076781
77	0xba30f79b	-0.0006750763
78	0xbacec0d2	-0.0015774018
79	0xbc247e19	-0.01003983
80	0xbc0729ef	-0.008249744
81	0x3b0e3293	0.0021697625
82	0x3c54525e	0.012959091
83	0xbc16c9a0	-0.009203345
84	0x3a5615f3	0.0008166723
85	0xbaadd32a	-0.0013261784
86	0x3c54525e	0.012959091
87	0xbc16c9a0	-0.009203345
88	0x3a4fafaf	0.0007922602
89	0x3b12637a	0.0022337125
90	0x3cbfe2c7	0.023423566
91	0x3b854eac	0.0040682163
92	0x3b3309df	0.0027319116
93	0xbb0a8aa4	-0.0021139765
94	0x3cbfe2c7	0.023423566
95	0x3b854eac	0.0040682163
96	0xbd785a60	-0.060633063
97	0xbd1a1fbb	-0.037627917
98	0x3b12fcdc	0.0022428548
99	0xbdd5dc21	-0.10442377
100	0x3d9c5302	0.0763302
101	0xbe9d2c78	-0.3069799
102	0xbcd1b3dc	-0.025598459
103	0xbdd5de3e	-0.1044278
104	0xbd221fe0	-0.03958118
105	0xbd4b9efc	-0.049712166
106	0x3cae6fdc	0.021293573
107	0xbd693c3e	-0.056942217
108	0x3c0e333d	0.008679208
109	0xbe956f49	-0.29186466
110	0xbbad89b3	-0.005295956
111	0xbd6965cf	-0.056981858
112	0xbd9888b7	-0.07447951
113	0xbda0e091	-0.07855333
114	0xbd77e924	-0.060525075
115	0xbe116fe0	-0.14202833
116	0xbc9727ca	-0.01845159
117	0xbe32de0e	-0.1746752
118	0xbdb6ab54	-0.08919397
119	0xbe117243	-0.14203744
120	0xbbd17748	-0.0063923933
121	0x37b751a9	2.1853326e-05
122	0x3bc9617a	0.0061456533
123	0x3b5e8af2	0.003395733
124	0xbbcaa8be	-0.0061846664
125	0x3b85634a	0.004070674
126	0x3bc9617a	0.0061456533
127	0x3b5e8af2	0.003395733
128	0xbbeeb120	-0.0072842985
129	0xb8081757	-3.2446664e-05
130	0xbcd16930	-0.025562853
131	0x3a1dc564	0.0006018488
132	0xbbddc08d	-0.0067673386
133	0x3b9931a2	0.004675106
134	0xbcd16930	-0.025562853
135	0x3a1dc564	0.0006018488
136	0xbc1d3d3e	-0.009597121
137	0xb93ca51e	-0.00017990588
138	0xbd21c2c7	-0.039492395
139	0xbb19d248	-0.0023471285
140	0xbbece4cd	-0.0072294236
141	0x3b8c1a2a	0.00427558
142	0xbd21c2c7	-0.039492395
143	0xbb19d248	-0.0023471285
144	0xbc1dad2d	-0.009623808
145	0xb8814a5a	-6.1650484e-05
146	0xbca34db3	-0.01993451
147	0x3a10c9b7	0.0005523222
148	0x3b8c21be	0.0042764833
149	0x3b98bef7	0.0046614367
150	0xbca34db3	-0.01993451
151	0x3a10c9b7	0.0005523222
152	0xbc027489	-0.007962354
153	0xb94f545a	-0.00019772482
154	0xbb20f8dc	-0.0024562394
155	0xbad423f7	-0.0016185035
156	0x3b89f506	0.0042101173
157	0x3b9e3055	0.004827539
158	0xbb20f8dc	-0.0024562394
159	0xbad423f7	-0.0016185035
160	0xbc4f3044	-0.012645785
161	0xbace61ba	-0.0015745678
162	0xbcf5d3f6	-0.030008297
163	0xbbd604f3	-0.0065313517
164	0x3b537c04	0.0032269964
165	0x3bb15488	0.0054116882
166	0xbcf5d3f6	-0.030008297
167	0xbbd604f3	-0.0065313517
168	0xbbf5d51b	-0.007502211
169	0xba9f0b23	-0.0012134056
170	0x3c7e6508	0.015527017
171	0xbae44bb2	-0.0017417578
172	0xbbd8cc42	-0.0066161463
173	0xbb073052	-0.0020628166
174	0x3c7e6508	0.015527017
175	0xbae44bb2	-0.0017417578
176	0xbb9e8bd9	-0.0048384485
177	0xba843e60	-0.001008939
178	0x3a64eeae	0.0008733076
179	0x3af062ce	0.0018339993
180	0xbba67a11	-0.0050804694
181	0xbb7d9fd8	-0.003870001
182	0x3a64eeae	0.0008733076
183	0x3af062ce	0.0018339993
184	0xba326f5d	-0.00068067556
185	0xb9d4bbc6	-0.00040575693
186	0x3c4bb9db	0.012434448
187	0xbaaa8dca	-0.0013012227
188	0xbb674b7c	-0.0035292795
189	0xbbd2f482	-0.006437839
190	0x3c4bb9db	0.012434448
191	0xbaaa8dca	-0.0013012227
192	0x3d687f4a	0.056762017
193	0x3c9d6454	0.01921288
194	0x3c49fb29	0.012327948
195	0xbc7c0d4d	-0.0153840305
196	0x3cc3b99e	0.02389222
197	0xbcd65eed	-0.026168311
198	0x3c49fb29	0.012327948
199	0xbc7c0d4d	-0.0153840305
200	0x3d72f28b	0.05931334
201	0x3c7ace97	0.015308044
202	0x3cb69fae	0.022292938
203	0xbcd2d5f1	-0.02573678
204	0x3ca8510c	0.020546459
205	0xbc8b9623	-0.017039364
206	0x3cb69fae	0.022292938
207	0xbcd2d5f1	-0.02573678
208	0x3d840605	0.06446461
209	0x3c4a2072	0.012336837
210	0x3d104960	0.035226226
211	0xbccf8c81	-0.025335552
212	0x3c8e50ef	0.017372577
213	0xbc1bb454	-0.009503443
214	0x3d104960	0.035226226
215	0xbccf8c81	-0.025335552
216	0x3b434ae4	0.0029799277
217	0x3a7d3792	0.00096594647
218	0xbb0f1e07	-0.0021837966
219	0xbbdc07b9	-0.006714788
220	0x3b0e8c11	0.0021750967
221	0xbc0a1f1f	-0.008430271
222	0xbb0f1e07	-0.0021837966
223	0xbbdc07b9	-0.006714788
224	0x3bebccf2	0.0071960622
225	0x3a8e423d	0.0010853481
226	0x3c94daa1	0.018170657
227	0xbb16ab2e	-0.0022990215
228	0x3b5db556	0.0033830008
229	0xbbfa4809	-0.007637982
230	0x3c94daa1	0.018170657
231	0xbb16ab2e	-0.0022990215
232	0x3b922f66	0.0044612167
233	0x39eb366f	0.0004486325
234	0xbcf55cbe	-0.02995145
235	0xbb7ed070	-0.0038881563
236	0x3ba072f2	0.004896515
237	0xbbd6f0dc	-0.0065594744
238	0xbcf55cbe	-0.02995145
239	0xbb7ed070	-0.0038881563
240	0xbc475250	-0.012165621
241	0xbab158e7	-0.0013530523
242	0x3bd3ea4f	0.0064671407
243	0x3bd5bb8c	0.0065226015
244	0xbc1eb3df	-0.009686439
245	0xbaa3088d	-0.0012438461
246	0x3bd3ea4f	0.0064671407
247	0x3bd5bb8c	0.0065226015
248	0xbc0fa0c9	-0.0087663615
249	0xbad89912	-0.0016525111
250	0x3c824c6b	0.01590558
251	0x3ba1f9ad	0.0049430938
252	0xbc391d45	-0.011298482
253	0xbb31c24a	-0.0027123862
254	0x3c824c6b	0.01590558
255	0x3ba1f9ad	0.0049430938

fc1.bias f4 [512]
0	0xb9acca00	-0.00032956898
1	0x3afa3483	0.0019089136
2	0x3d024ccb	0.031811517
3	0x3af1725b	0.0018420921
4	0xbd1aee0e	-0.037824683
5	0x3928014f	0.00016022216
6	0x3a2b1261	0.0006525871
7	0xbb5eee23	-0.0034016452
8	0xbb231113	-0.0024882003
9	0x3b018ed0	0.001976896
10	0xb910270e	-0.00013747459
11	0xba77b677	-0.00094494916
12	0x39bb8cbb	0.00035772272
13	0x39c02c68	0.0003665418
14	0xb98578bc	-0.0002545769
15	0xba365a53	-0.00069562084
16	0xba0c0f45	-0.00053428515
17	0xbca42451	-0.020036848
18	0xbb4ea64d	-0.0031532228
19	0xb99b6203	-0.00029636928
20	0x3a1c04f7	0.00059516676
21	0xbb9b43fd	-0.0047383294
22	0x3b4b5789	0.0031027517
23	0x39416a1d	0.00018445445
24	0xbc240887	-0.010011799
25	0x3aa4c069	0.001256955
26	0x3a55cd55	0.0008155902
27	0x3932bff6	0.00017046914
28	0x3a20f5e1	0.00061401544
29	0xbbb7afeb	-0.005605688
30	0x392f7b3d	0.0001673521
31	0xbb04c59a	-0.0020259381
32	0x39616b57	0.0002149766
33	0x3addb68c	0.0016915365
34	0xba340713	-0.0006867509
35	0x3a4eb51b	0.0007885263
36	0x3962263a	0.0002156728
37	0x39fdcc7b	0.0004840827
38	0xba2eef4e	-0.00066732324
39	0xbc6de0e0	-0.014518946
40	0x3a008106	0.00049020385
41	0xb8bb10a2	-8.919953e-05
42	0xba2803cc	-0.0006409257
43	0xbb170971	-0.00230464
44	0xb90bcdb3	-0.00013332702
45	0xbaff575b	-0.001948099
46	0xba46b4be	-0.0007580033
47	0x3a263de1	0.0006341618
48	0x3b150bca	0.0022742623
49	0xbb7fc506	-0.0039027347
50	0xbaf6292f	-0.0018780584
51	0x3a61eb79	0.0008618157
52	0x39a649ec	0.00031717063
53	0x39c9ddaf	0.00038502875
54	0x39a8c96f	0.00032193537
55	0xbb0d296a	-0.0021539577
56	0xbab2a2d8	-0.0013628853
57	0x3b3110f2	0.0027018157
58	0x38ee39e0	0.000113595044
59	0xbb4064de	-0.0029356997
60	0xb91b7891	-0.00014826866
61	0xba1ee63a	-0.0006061528
62	0xbbb771b2	-0.0055982703
63	0xba8e7a34	-0.001087016
64	0x3abeeac5	0.0014565816
65	0x3a7c93ee	0.00096350804
66	0x3a20b4bd	0.0006130448
67	0x3ae69666	0.001759243
68	0xbc07b102	-0.008281948
69	0xbac552bb	-0.0015054563
70	0x3b14c4f8	0.002270041
71	0xbab1c0dd	-0.0013561506
72	0xb998ec20	-0.00029167626
73	0xbbd498c3	-0.006487937
74	0xbbc01fab	-0.00586315
75	0x39eae0cb	0.00044799442
76	0x3d185433	0.037189674
77	0xba787cb1	-0.00094790297
78	0xba40f5fe	-0.00073608744
79	0xba1031df	-0.00055005954
80	0xba327bde	-0.0006808619
81	0xbb430af2	-0.0029761163
82	0xbb9a2521	-0.004704133
83	0xbb306199	-0.0026913641
84	0xbaa90373	-0.0012894705
85	0x3c1019ca	0.008795211
86	0xba2b06b2	-0.000652413
87	0xb9c86adc	-0.0003822659
88	0x3b8c4183	0.0042802705
89	0xba399a0a	-0.00070801436
90	0x3ab9e19b	0.0014181616
91	0xba21e90b	-0.00061763887
92	0x393a7976	0.0001778359
93	0x3ab4f5b7	0.0013806139
94	0x3bbdb4b5	0.005789364
95	0xb99917e8	-0.00029200246
96	0xba1e46c9	-0.00060377695
97	0xbb2fff06	-0.0026854887
98	0x3bb3b10a	0.005483751
99	0xbd29d13b	-0.041459303
100	0xb87642c1	-5.871314e-05
101	0x3b1cc1b3	0.0023919165
102	0xbbb80cf4	-0.0056167785
103	0x39cd1b99	0.0003912121
104	0x3a35afdd	0.0006930808
105	0xba05cf16	-0.00051044056
106	0xbd11727b	-0.035509568
107	0xbb9c6ba8	-0.004773576
108	0xb993bbb5	-0.00028177878
109	0x3ad24dc6	0.0016044907
110	0xbbd4afdb	-0.00649069
111	0xbb923f9b	-0.004463149
112	0xb9cd10c6	-0.00039113144
113	0x3b005d8b	0.0019587006
114	0x3ab65712	0.0013911447
115	0xb9d48c5f	-0.00040540376
116	0xba1f0bf5	-0.00060671504
117	0x3a44195b	0.0007480585
118	0x386d48e0	5.6573073e-05
119	0xbc4ab6d2	-0.012372689
120	0xbb99d0cc	-0.00469408
121	0x39a2a994	0.00031025393
122	0xbbeb55fa	-0.00718188
123	0xbaa65b9b	-0.0012692095
124	0x39a15287	0.000307698
125	0x39375603	0.00017484282
126	0xba26f40d	-0.0006368764
127	0x3a97d703	0.0011584464
128	0xba336d2d	-0.00068445766
129	0x39be25e2	0.0003626785
130	0xb9c0d7bf	-0.00036781837
131	0xbb0fe7a3	-0.0021958135
132	0x3aea0719	0.0017854898
133	0x3ac673cb	0.001514071
134	0xbb016b8e	-0.0019747945
135	0xbc5ded21	-0.0135453055
136	0xb9d0d0a7	-0.0003982831
137	0xbb88c62d	-0.004174015
138	0xbe809c3e	-0.25119203
139	0xbd621124	-0.055192128
140	0x3a9f9338	0.0012174612
141	0xbc65ae99	-0.014018678
142	0x3b31084a	0.0027012997
143	0x3bf5bd5d	0.0074993805
144	0x3a1e2027	0.0006032013
145	0x38a50b5f	7.869931e-05
146	0x37c45a8a	2.3407181e-05
147	0x385a8f78	5.2108866e-05
148	0x39e730d2	0.00044096127
149	0x3bb4cc08	0.0055174865
150	0x3a1ae7f9	0.00059092004
151	0xbc0cbbdc	-0.008589711
152	0x3b1e20db	0.002412847
153	0x3846b423	4.7374644e-05
154	0x378fbcdc	1.7134873e-05
155	0xba020fb1	-0.00049614446
156	0x3adadf9d	0.0016698722
157	0xb871727b	-5.7565496e-05
158	0xb9adecc6	-0.0003317354
159	0xbb4f06a6	-0.0031589656
160	0xb9f4ab57	-0.00046666965
161	0xbab55c2b	-0.0013836672
162	0xbb5ac94b	-0.003338414
163	0xbb3bd521	-0.002866097
164	0xba3de08d	-0.00072432385
165	0x3afee45a	0.0019446716
166	0xb8b23e6c	-8.4993284e-05
167	0x3a2642f9	0.0006342377
168	0xbbfd6d4d	-0.007733977
169	0xb93dc453	-0.00018097581
170	0x38c8b88c	9.571118e-05
171	0x3ac7fdc7	0.0015258127
172	0x39e38799	0.00043397842
173	0x395b4856	0.00020912415
174	0x3d507a21	0.05089772
175	0xba9b508d	-0.0011849568
176	0x37c0d689	2.2988084e-05
177	0x396cd119	0.00022584609
178	0x3e90ce25	0.28282276
179	0x3ac08c38	0.0014690226
180	0xbac0974c	-0.0014693527
181	0x39a517bb	0.00031488933
182	0x38da9908	0.00010423554
183	0xbab4dd47	-0.0013798856
184	0x3be63f13	0.007026562
185	0xb9dea63e	-0.00042467
186	0x3a940490	0.0011292864
187	0x39ff7dfd	0.0004873126
188	0x391bb708	0.00014850136
189	0x39da525b	0.0004164156
190	0x382e835d	4.1607174e-05
191	0xba1e8175	-0.0006046512
192	0x3a419860	0.00073850714
193	0x3a1755bb	0.00057729677
194	0xb784608e	-1.5780588e-05
195	0xbb40e18e	-0.0029431316
196	0x3a59360b	0.0008285946
197	0xbca6d6a9	-0.02036603
198	0xbab2ceac	-0.0013641915
199	0x39c07bf6	0.00036713452
200	0x3afea993	0.0019429199
201	0x39b8c505	0.00035242006
202	0x3aa8a9a1	0.0012867936
203	0xb9df64cb	-0.0004260897
204	0xb9952e10	-0.00028453814
205	0xbb00f980	-0.0019679964
206	0xbc468f36	-0.012119105
207	0x3ab6c210	0.0013943333
208	0xb991dd0e	-0.00027821254
209	0xbaa0875d	-0.0012247373
210	0xba3180db	-0.0006771215
211	0xb8a4c5ca	-7.8569705e-05
212	0xba9267ee	-0.001116989
213	0x3aabafb1	0.0013098625
214	0xba4efcb0	-0.000789593
215	0x3b5ea7fa	0.0033974634
216	0x3b4d1e20	0.0031298473
217	0xbaa79cf2	-0.0012787862
218	0x3bee815e	0.0072786054
219	0x3bc5a56b	0.0060316822
220	0xba001bac	-0.0004886936
221	0x3c2ff053	0.01073845
222	0x3906e8f3	0.00012866016
223	0xb897aa98	-7.232017e-05
224	0xb9a46301	-0.0003135428
225	0xb948ded2	-0.00019156493
226	0xbb757aff	-0.0037457345
227	0x3890db71	6.907329e-05
228	0x381b9825	3.7096575e-05
229	0xbb4cfbb7	-0.0031277963
230	0x3ab096e8	0.0013472708
231	0x3b4f90e7	0.0031672062
232	0x39a49baa	0.00031396496
233	0xb93f88eb	-0.00018266185
234	0x385fcd08	5.3358293e-05
235	0xbacea8fe	-0.0015766916
236	0xbaf2faf9	-0.001853793
237	0xb83f65fd	-4.5632933e-05
238	0x3a25c69d	0.0006323846
239	0xbdb41f36	-0.087950155
240	0xbc24d327	-0.010060108
241	0x3896ea36	7.1961826e-05
242	0xbc550543	-0.013001743
243	0xb95559b8	-0.00020346686
244	0xbc2c9bc9	-0.010535189
245	0x3b1389c3	0.0022512532
246	0x3a36833e	0.00069623056
247	0xbc2c0d4b	-0.010501216
248	0x398e514f	0.0002714493
249	0xb99c3cc7	-0.0002979992
250	0xb968c1c3	-0.00022197426
251	0xbd5ff3fe	-0.05467605
252	0xba2eccf3	-0.0006668113
253	0xbb0014a2	-0.0019543548
254	0x3ac1cbcc	0.0014785468
255	0x3b50c1f6	0.003185389

bn.weight f4 [512]
0	0xb9a12677	-0.00030736972
1	0x3a2785cc	0.0006390482
2	0x3ed9191a	0.42401963
3	0xbb2e8712	-0.00266308
4	0x3e65dc5b	0.2244734
5	0x3a83be21	0.001005117
6	0xbb128d30	-0.0022361986
7	0x3b56f8e7	0.0032802166
8	0xba96a4a3	-0.0011493157
9	0x3acba909	0.0015538047
10	0xbb9ede30	-0.004848264
11	0xbaf5b6e7	-0.0018746526
12	0x398ea12e	0.0002720444
13	0x3a1eb54b	0.00060542364
14	0x3a75d363	0.00093775074
15	0xba9a383d	-0.0011766028
16	0xba201312	-0.00061063573
17	0x3e307db2	0.17235449
18	0x3b52a0e6	0.003213936
19	0xba3d3fc5	-0.000721928
20	0xba437cdb	-0.00074572646
21	0xbb2ce69a	-0.0026382566
22	0xbb9873a7	-0.0046524587
23	0xba0a1a3c	-0.00052681915
24	0xbbd19532	-0.0063959593
25	0xbb4329be	-0.002977952
26	0x3a71cfeb	0.00092244026
27	0x3a0c00bd	0.0005340686
28	0xba134489	-0.00056178175
29	0xbb4e6374	-0.0031492384
30	0x3b3b550e	0.0028584632
31	0xbac3bec5	-0.0014934173
32	0x3b67e0b8	0.0035381746
33	0x3b99c6b9	0.004692879
34	0xbb0201ae	-0.0019837427
35	0xbb318db7	-0.0027092525
36	0xba5a4c67	-0.0008327425
37	0x3a4c04f8	0.0007782723
38	0xbb86ff40	-0.0041197836
39	0x3ea6b881	0.3256264
40	0xb9b984c3	-0.00035384865
41	0x3aa00442	0.00122083
42	0xba3808e1	-0.0007020366
43	0x3a63ddd5	0.00086924183
44	0xba68cac6	-0.0008880313
45	0x3b471b5d	0.00303813
46	0xbb763961	-0.0037570822
47	0xbb2014e9	-0.0024426526
48	0x3b62993f	0.0034576205
49	0xb9ddf269	-0.00042333014
50	0xbb621976	-0.003450004
51	0xba9b1670	-0.0011832248
52	0xbb38db3f	-0.0028206853
53	0xbb2340b4	-0.0024910392
54	0xba76aaa5	-0.0009409583
55	0xbb5c9da0	-0.0033663288
56	0xbb2d8f19	-0.0026482998
57	0x3b5e59b4	0.003392798
58	0x3aec70fc	0.0018039043
59	0x3adb24bf	0.0016719325
60	0xbabf7301	-0.0014606417
61	0xbbecf725	-0.0072316104
62	0xbba8ef22	-0.00515546
63	0x3f010749	0.5040174
64	0xbabee019	-0.0014562636
65	0xbb912d28	-0.004430432
66	0x37a3e762	1.953886e-05
67	0xbb4307b1	-0.0029759223
68	0x3c5659ad	0.013082904
69	0xbb1019f4	-0.0021988126
70	0xba0fe20e	-0.0005488702
71	0xb970ea25	-0.00022975409
72	0xb9a88534	-0.000321427
73	0xbc362d4a	-0.011119196
74	0xbab2f11f	-0.0013652182
75	0x39f5d4e2	0.00046888652
76	0x3f005009	0.50122124
77	0x37815555	1.5417734e-05
78	0x3b151e3d	0.002275362
79	0x3b0444cf	0.0020182615
80	0x394a748f	0.00019307643
81	0x3908b266	0.0001303643
82	0x3bab74d9	0.005232435
83	0x3ea81f46	0.3283636
84	0x39df2f05	0.00042568907
85	0x3b9a46a5	0.0047081285
86	0xbabb706f	-0.0014300476
87	0xb92670ca	-0.00015873011
88	0x3b5e8590	0.0033954121
89	0xba2ca28c	-0.00065855007
90	0xba1e7afe	-0.0006045549
91	0x3ae3b608	0.0017372975
92	0x3b88b2f9	0.004171726
93	0x3a28c7f4	0.0006438487
94	0x3ada1a0d	0.0016639844
95	0x3a204a85	0.000611462
96	0x3c0a0591	0.008424179
97	0x3a66b9d7	0.0008801496
98	0x3b7bea35	0.0038439159
99	0x3e380944	0.17972285
100	0xbb175b2c	-0.0023095114
101	0x3bba47d3	0.0056848316
102	0x3edcf5ef	0.43156382
103	0xba270bd9	-0.000637231
104	0xba8c2da1	-0.0010694751
105	0x3a8c5aa9	0.0010708171
106	0x3e771078	0.24127376
107	0x3b9bc7bd	0.0047540353
108	0x39949589	0.00028340172
109	0xbb225414	-0.0024769353
110	0xbc36fd74	-0.011168826
111	0xbbb1d313	-0.0054267733
112	0xba80d3a5	-0.00098287
113	0xba555426	-0.0008137844
114	0xbb58af5b	-0.0033063504
115	0x3a448d11	0.0007497827
116	0x3b0234b2	0.0019867835
117	0xba0f1ae1	-0.00054590224
118	0xbaa19974	-0.0012329058
119	0xbb023c6a	-0.0019872435
120	0x3b53686b	0.0032258283
121	0xbac8e5e1	-0.0015327298
122	0x3bdad558	0.0066782646
123	0xbadfc87b	-0.0017073298
124	0x3b0bb565	0.0021317836
125	0xba12a5e2	-0.00055941765
126	0xbae1e97f	-0.0017235725
127	0x3ba2e752	0.004971423
128	0x3b890e24	0.004182594
129	0x3b9682f9	0.00459325
130	0x3b546ad6	0.0032412312
131	0xbb5ab917	-0.0033374482
132	0x3b2030fd	0.0024443262
133	0xbafe04ba	-0.0019380071
134	0x3c17da0d	0.009268296
135	0x3e15e91f	0.1463971
136	0x3b72aceb	0.0037029337
137	0xbbef6832	-0.007306122
138	0x3f10017c	0.56252265
139	0x3e59e521	0.21278812
140	0xb8ed9b84	-0.00011330008
141	0x3f5065ac	0.8140514
142	0x3ac302a5	0.0014878107
143	0xbc2df80b	-0.01061822
144	0x3ae72ea3	0.00176378
145	0xbb20e684	-0.002455146
146	0xba918012	-0.001110079
147	0x39d00f4e	0.00039684254
148	0xbb1ff4df	-0.002440743
149	0xbc28e15d	-0.010307637
150	0xba6faec4	-0.00091431686
151	0x3a9030b3	0.0011000842
152	0xbb1945c4	-0.002338753
153	0x39f56d1e	0.0004681134
154	0xbac25cdb	-0.0014828698
155	0xba5baf02	-0.0008380265
156	0xbacbb0af	-0.0015540327
157	0xba6e26a7	-0.0009084739
158	0xba6b4e59	-0.0008976213
159	0xbb1f3c03	-0.0024297244
160	0xb9e32d1c	-0.00043330423
161	0x3e3062af	0.17225145
162	0xbab7f6d5	-0.0014035354
163	0xba4d639d	-0.0007834973
164	0xbad9b358	-0.0016609235
165	0xbb8232bf	-0.0039733346
166	0x39889c00	0.0002605617
167	0x3a310882	0.0006753282
168	0x3bc82e60	0.006109044
169	0xbb0c7e8c	-0.0021437733
170	0x3a0eef0e	0.0005452492
171	0xba86dc17	-0.001028898
172	0x3aa8be33	0.0012874067
173	0xb68ac35b	-4.135463e-06
174	0x3ebe9fc7	0.37231275
175	0x3ac2f600	0.0014874339
176	0xb9aa5eb8	-0.00032495498
177	0xba576f56	-0.00082181895
178	0x3f2cfcc0	0.67573166
179	0x3aa45c7a	0.0012539767
180	0xba855670	-0.0010172855
181	0x3b6e1d4a	0.0036333376
182	0x3ae1d8ab	0.001723071
183	0x3bc0918f	0.005876727
184	0xbc7308af	-0.014833613
185	0x3641201b	2.877793e-06
186	0x3c1903ff	0.009339332
187	0xb9af9005	-0.00033485904
188	0xbaeb4414	-0.0017949366
189	0xb984c0a1	-0.00025320522
190	0xbae6ed07	-0.0017618247
191	0xbb2f8d12	-0.0026786965
192	0x3886eaa7	6.433325e-05
193	0xbb35fcfe	-0.0027769203
194	0x3a18d679	0.0005830299
195	0x3bcd8a5c	0.0062725972
196	0xbad0b8bc	-0.0015924196
197	0x3e2bdbc5	0.16783054
198	0x39b8459d	0.0003514708
199	0x3b259119	0.0025263487
200	0x3ad31494	0.0016104155
201	0xb9adec99	-0.0003317341
202	0xbb2bcb4e	-0.0026213708
203	0xba344d7e	-0.00068780023
204	0x3a9ccff3	0.0011963829
205	0xbbc4699b	-0.0059940345
206	0x3e3bc767	0.18337785
207	0x3a3197f9	0.000677466
208	0x39af44a4	0.00033429742
209	0xbb3549cf	-0.0027662402
210	0xbb361be3	-0.0027787618
211	0x3ba714a5	0.0050988966
212	0xb9c1046a	-0.00036815117
213	0xb9e5a031	-0.00043797636
214	0x3ace851f	0.0015756226
215	0x3ba7a88a	0.005116527
216	0xbbdca631	-0.0067336787
217	0x3b821109	0.003969316
218	0x3efe317a	0.49647123
219	0x3c3b553d	0.011433897
220	0xbb5f4880	-0.0034070313
221	0xbc634a06	-0.013872629
222	0xba5b6bc5	-0.0008370246
223	0x3ad2c1ab	0.0016079446
224	0xbb650ee5	-0.0034951505
225	0x3a86d945	0.001028814
226	0xbba9e30e	-0.0051845377
227	0xb9bf7c0d	-0.00036522784
228	0x3c7d86e5	0.015474056
229	0x3b7c925f	0.0038539392
230	0x3b3123e3	0.0027029447
231	0xb702d5e8	-7.798408e-06
232	0xb99dd0dd	-0.0003010099
233	0x3ac7724c	0.0015216558
234	0x3889108e	6.5357526e-05
235	0xbb14be11	-0.0022696296
236	0xbb18b485	-0.0023300957
237	0xba4b5ae6	-0.00077573804
238	0x3ad377ee	0.0016133764
239	0x3eefff6d	0.46874562
240	0x3da7f268	0.08200532
241	0xb997ddc3	-0.0002896619
242	0x3a8d964a	0.0010802236
243	0x3bb1222a	0.005405684
244	0x3e005ca7	0.12535344
245	0x3bf6b464	0.0075288285
246	0x3b5bd14a	0.0033541494
247	0xbbafc2f4	-0.0053638164
248	0xbaf3dc87	-0.0018605151
249	0xbaaaa5dd	-0.0013019402
250	0x39d5cdaf	0.00040779772
251	0x3eeb574e	0.45965046
252	0xbb225c1b	-0.0024774137
253	0x3ae5cec9	0.001753294
254	0xbab8a777	-0.0014087994
255	0x3be0f10b	0.006864672

bn.bias f4 [512]
0	0x3a21e5b0	0.00061758887
1	0xbb92d67a	-0.004481134
2	0x3e8b3572	0.27189213
3	0xba8872ee	-0.0010410228
4	0x3caea553	0.021319067
5	0xbabd079d	-0.0014421825
6	0xb954d0e7	-0.00020295718
7	0x3b3ffe2a	0.002929578
8	0xbbbc445c	-0.0057454538
9	0x3abed0e3	0.0014558103
10	0x3adf4bec	0.0017036176
11	0xba522326	-0.0008016102
12	0xb9b8ca35	-0.0003524587
13	0xb9b2d7f7	-0.00034111712
14	0x3a819607	0.000988663
15	0x37979666	1.8070637e-05
16	0x3a926684	0.0011169468
17	0xbcc35f55	-0.023849169
18	0xbb797e66	-0.0038069724
19	0xb8ee2158	-0.00011354935
20	0x399c9b22	0.00029870222
21	0x3a62b464	0.0008648096
22	0xbaba5ec1	-0.0014218913
23	0xbabde5a6	-0.0014487996
24	0xba7f8bfd	-0.0009748338
25	0xb9932bc7	-0.00028070642
26	0x3acd3b4a	0.0015657928
27	0xba04a9ed	-0.00050607213
28	0x3abbd123	0.0014329295
29	0x3b8eb581	0.004355133
30	0xbac9d771	-0.001539929
31	0x3b73dff7	0.003721235
32	0xba2339de	-0.00062265794
33	0x3aca6fdf	0.0015444717
34	0xb91008d9	-0.00013736206
35	0x3a6c8269	0.0009022118
36	0x3a4e80d2	0.0007877472
37	0x39c1197d	0.0003683082
38	0x3b8bde60	0.0042684525
39	0x3e0dbe0c	0.13842028
40	0xba3ffaec	-0.0007323462
41	0x3a24105d	0.0006258542
42	0xba472715	-0.0007597071
43	0x3a8c8264	0.0010720012
44	0x3ab10317	0.0013504949
45	0xb8c7ea76	-9.532731e-05
46	0xbb54bd32	-0.0032461402
47	0x39c13ad7	0.00036855668
48	0x3b25d9cb	0.0025306817
49	0x3a94f961	0.0011365825
50	0x3b20e719	0.0024551807
51	0xb99a30f2	-0.00029409636
52	0x3a26597f	0.00063457334
53	0x3a625f59	0.0008635424
54	0x39f65da9	0.0004699056
55	0x3acafa51	0.0015485977
56	0x3a9f97b3	0.0012175947
57	0xb8ce9cbe	-9.852041e-05
58	0xb9d99056	-0.00041497004
59	0x3adf8b83	0.0017055128
60	0xbafb0217	-0.0019150403
61	0x39ecd5d2	0.00045172736
62	0xbbc24e10	-0.005929716
63	0xbd8068b0	-0.062699676
64	0xba859856	-0.0010192494
65	0xba8b8a38	-0.0010646051
66	0xba840da0	-0.0010074861
67	0xb8afcfd7	-8.3833635e-05
68	0x3b6b95c9	0.0035947433
69	0x3b913042	0.0044308016
70	0xbaf2fb6b	-0.0018538063
71	0xbb74a01f	-0.0037326885
72	0x39abda6d	0.00032778402
73	0xba92c903	-0.0011198822
74	0x3b4e71f8	0.0031501036
75	0x3a7dd180	0.0009682402
76	0x3e13c9de	0.14432475
77	0x3980340a	0.00024452835
78	0xbb09edbc	-0.0021046242
79	0xbafa9b59	-0.0019119784
80	0x3a7fe812	0.0009762059
81	0x3ac35311	0.0014902075
82	0x3a3eefc3	0.0007283652
83	0x3de6a473	0.11261835
84	0x3b1724fb	0.0023062814
85	0xbbb572f5	-0.0055373856
86	0xbae4aff9	-0.0017447463
87	0x38462090	4.7237205e-05
88	0x3ba037de	0.0048894724
89	0xba011866	-0.0004924595
90	0xbb070c09	-0.0020606539
91	0xba26f869	-0.00063694135
92	0xbc172655	-0.009225448
93	0x3b070fd1	0.0020608793
94	0xbaa7d77a	-0.0012805306
95	0xb9e57804	-0.00043767702
96	0x3b9ab12e	0.0047208285
97	0xba91d4df	-0.0011126063
98	0x3b06ae29	0.0020550585
99	0x3d0afab4	0.033930495
100	0x3a650f98	0.00087379804
101	0x3bc22e36	0.005925919
102	0x3e7d482c	0.24734563
103	0x3b448ed4	0.0029992359
104	0xbb773da7	-0.0037725957
105	0xba2bf00d	-0.00065589027
106	0x3d827753	0.063704155
107	0x3b6b13cd	0.0035869956
108	0x3a50728b	0.00079516385
109	0xb7ad905c	-2.069043e-05
110	0x3bc7d7e5	0.0060987347
111	0xbb439915	-0.0029845883
112	0xbb10cac1	-0.0022093507
113	0xbb100bbd	-0.0021979653
114	0x399700df	0.00028801613
115	0xbab99631	-0.001415914
116	0xb9e63a5e	-0.00043912505
117	0x39aaac6a	0.00032553385
118	0xbaadb08b	-0.0013251466
119	0xbb532338	-0.0032217037
120	0x3afaf9cd	0.0019147933
121	0xba17e290	-0.00057939533
122	0x3b3b983a	0.002862467
123	0xb81a079d	-3.672355e-05
124	0xba05271b	-0.00050793745
125	0x3933733b	0.00017113697
126	0xbac96aa5	-0.0015366866
127	0x3ab48087	0.0013771214
128	0xba97c9b2	-0.0011580496
129	0xbabe7339	-0.0014530189
130	0x3a303df1	0.0006723097
131	0xbb246433	-0.0025084137
132	0x3a1cb86d	0.00059784093
133	0x3b91f7e1	0.0044545983
134	0x3b543914	0.0032382654
135	0xbc2ff380	-0.010739207
136	0xbae5ba03	-0.0017526749
137	0xbb6add88	-0.003583761
138	0x3ca477c2	0.020076636
139	0xbd22c5bb	-0.03973935
140	0x3afadb84	0.0019138907
141	0x3e1c15f5	0.15242751
142	0x3bd1af56	0.0063990755
143	0x3b7716b2	0.0037702736
144	0x3b260934	0.0025335075
145	0xba6a5b79	-0.0008940022
146	0xba3a820d	-0.0007114716
147	0xb8045a02	-3.155508e-05
148	0xba6c7a8c	-0.00090209465
149	0xba9ab4a4	-0.0011803103
150	0x39c3fb0f	0.00037380352
151	0x3b8bba6a	0.0042641656
152	0xb9846b3d	-0.000252569
153	0x3901e99b	0.00012389424
154	0xb8906b6b	-6.886463e-05
155	0x3a6c5758	0.0009015701
156	0xba16005e	-0.00057221006
157	0x38fe8443	0.000121362995
158	0x3a0644f5	0.000512197
159	0xbb4ef3c8	-0.003157841
160	0x398787b7	0.00025850322
161	0x3cf65e50	0.030074269
162	0xbb75a817	-0.0037484223
163	0x3b7d30ed	0.0038633898
164	0x39b1ffd3	0.00033950675
165	0xba2ec32f	-0.0006666658
166	0x3a62c3de	0.00086504023
167	0xbb236a40	-0.0024935156
168	0xbac33117	-0.0014891949
169	0xb9c66500	-0.00037840754
170	0xba184108	-0.000580803
171	0x3a84a179	0.0010118923
172	0x3a17fc21	0.0005797763
173	0xba101b96	-0.00054972747
174	0x3d5f6832	0.054542728
175	0x39f35741	0.0004641358
176	0xb8ced944	-9.863314e-05
177	0x38702eb4	5.7263955e-05
178	0x3e3b0e22	0.1826711
179	0xbae8bccc	-0.0017756461
180	0xb9a64266	-0.00031711458
181	0x3a2f58b0	0.00066889357
182	0xb964b67a	-0.00021811752
183	0x3b1d0ad3	0.002396275
184	0x3afa7ad1	0.0019110088
185	0x3b86eec0	0.0041178167
186	0xbb2234af	-0.002475064
187	0x3af4d7da	0.0018680051
188	0xb99d30d9	-0.00029981768
189	0xb9db2843	-0.00041800932
190	0xba9aff4f	-0.0011825355
191	0xbaebe31c	-0.0017996761
192	0xb898514a	-7.263066e-05
193	0xbaadcc8a	-0.001325981
194	0xba0ea078	-0.0005440782
195	0x3a93fa9b	0.0011289896
196	0xbb906a0e	-0.004407174
197	0x3ca78146	0.020447385
198	0xba422071	-0.0007405347
199	0xbab89052	-0.0014081097
200	0x3a56bbce	0.0008191437
201	0xba6dcaea	-0.0009071069
202	0xba49804f	-0.0007686661
203	0xba0765d2	-0.0005165014
204	0xbb412a6e	-0.0029474753
205	0xba2a3f5a	-0.00064944255
206	0x3dc9608d	0.09832869
207	0xbb52b808	-0.0032153148
208	0xba3846eb	-0.00070296106
209	0x3afb0319	0.0019150703
210	0xb9f6cf9d	-0.0004707546
211	0x3b015bc3	0.0019738532
212	0x3a3eafc4	0.0007274116
213	0x3ae4704f	0.001742849
214	0xbb2ae79d	-0.0026077994
215	0x3a69ab23	0.0008913746
216	0xba2dddfb	-0.0006632504
217	0x394a7fef	0.0001931188
218	0x3df0968f	0.11747467
219	0x3aff3ba9	0.0019472736
220	0x3b439e37	0.0029848942
221	0xbb88ee3a	-0.0041787894
222	0xba978ddf	-0.0011562667
223	0xba7355d0	-0.00092825014
224	0x3987cf36	0.0002590359
225	0x3a7e3d0a	0.00096984266
226	0xbb49ea21	-0.0030809718
227	0xb9c8b3b4	-0.00038280862
228	0xbb1911e2	-0.0023356606
229	0xbb958ad1	-0.0045636673
230	0xba23086f	-0.0006219213
231	0xba4cc532	-0.0007811367
232	0x3a5ec2dd	0.0008497665
233	0x3a0fc150	0.0005483823
234	0xb982d580	-0.00024954602
235	0x3a23cff7	0.0006248946
236	0xbb6e68f1	-0.0036378468
237	0x390c7f8f	0.0001339896
238	0xbac883e9	-0.0015298101
239	0x3dff4d57	0.12465923
240	0x3c3d2275	0.01154386
241	0xba280c9a	-0.0006410569
242	0x3bf99739	0.007616904
243	0xbb2ec29e	-0.0026666294
244	0x3c9f27d9	0.01942818
245	0x3bf95857	0.007609408
246	0xbab1551f	-0.0013529396
247	0xbb57592d	-0.003285955
248	0x3aa32db3	0.0012449533
249	0xbac11bb9	-0.0014732993
250	0x3a54726b	0.0008104208
251	0x3d162b31	0.036662284
252	0xbac6cb8f	-0.0015166866
253	0xbb338cfe	-0.002739727
254	0x38d6b505	0.00010238033
255	0x3a8196a8	0.0009886818

bn.running_mean f4 [512]
0	0x3ead8e1b	0.3389748
1	0x3f991ac3	1.1961292
2	0x3fddb016	1.7319362
3	0x3f78ff3f	0.97264475
4	0x3ec67e5c	0.3876828
5	0x3f291f90	0.66063786
6	0x3f0f13a1	0.55889326
7	0x3f3239d1	0.6961947
8	0x3fa3f442	1.2808917
9	0x3e77a0eb	0.24182479
10	0x3fbbb779	1.4665366
11	0x3ff47c01	1.9100343
12	0x3e0e2375	0.13880713
13	0x3da40223	0.0800822
14	0x3f687532	0.90803826
15	0x3fb4de37	1.4130315
16	0x3fc39fe3	1.5283169
17	0x3f870534	1.0548463
18	0x3f11ba92	0.5692531
19	0x3e72b837	0.23703085
20	0x3f358cdf	0.7091808
21	0x3eb0c2ef	0.34523723
22	0x3e5612d7	0.20905624
23	0x3ebd1829	0.36932495
24	0x3e1ecc8c	0.15507716
25	0x3e2f20dc	0.17102379
26	0x3e6c1ad1	0.23057105
27	0x3f71e7d2	0.94494355
28	0x3efc1341	0.4923344
29	0x3dca1dfe	0.09869002
30	0x3f82873e	1.0197523
31	0x3f5eb43e	0.8699378
32	0x3f712ec2	0.9421197
33	0x3e01c118	0.12671316
34	0x3d8b7080	0.06808567
35	0x3f31a952	0.6939899
36	0x3c401432	0.011723565
37	0x3ea75e01	0.32688907
38	0x3f15c201	0.5849915
39	0x4001c20d	2.027469
40	0x3e125909	0.14291777
41	0x3dea1c8d	0.11431227
42	0x3d8073da	0.06272097
43	0x3f5c4396	0.8604063
44	0x3ec300c8	0.38086534
45	0x3e0263fa	0.1273345
46	0x3eec03ec	0.46096742
47	0x3eee9d63	0.46604452
48	0x3e558e6a	0.20855108
49	0x3d1cf5e8	0.038320452
50	0x3eaaf03c	0.3338641
51	0x3e447160	0.19183874
52	0x3ef03029	0.46911743
53	0x3e9a1ecc	0.3010162
54	0x3e81f47c	0.2538184
55	0x3ee660b8	0.44995666
56	0x4007da91	2.1227152
57	0x3e70ec7b	0.2352771
58	0x3f935ce8	1.1512728
59	0x3f174570	0.5909033
60	0x3e8e1590	0.27750826
61	0x3f86fea7	1.0546464
62	0x3f9097ef	1.1296366
63	0x410b89e3	8.721164
64	0x3f17da4c	0.5931747
65	0x3e8b6d87	0.27232
66	0x3f6b4266	0.9189819
67	0x3ea162df	0.31520745
68	0x3f3104d6	0.69148004
69	0x400a3bf5	2.1599095
70	0x3ecac579	0.39603785
71	0x3eecf39a	0.46279603
72	0x3d5ca5c8	0.05386904
73	0x3f365890	0.71228886
74	0x3e36bea8	0.17846167
75	0x3f9eef0a	1.2416699
76	0x3e4b0d00	0.19829178
77	0x3d84af32	0.06478728
78	0x3e295c64	0.1653915
79	0x3f484e5c	0.78244567
80	0x3ea8992c	0.3292936
81	0x3f54ffa3	0.8320257
82	0x3e4a6bd0	0.1976769
83	0x3e960c1c	0.29306114
84	0x3e52d942	0.2059069
85	0x3f750244	0.9570658
86	0x3e292595	0.16518243
87	0x3d73ecce	0.059552006
88	0x3f9fdf66	1.2490051
89	0x3dfbcd9c	0.12295076
90	0x3f004175	0.5009988
91	0x3f840847	1.0315026
92	0x3f0ae328	0.5425286
93	0x3f0d63af	0.5523023
94	0x3e10e502	0.1414986
95	0x3e71551b	0.23567621
96	0x3ea426e4	0.3206092
97	0x3ecd373d	0.40081206
98	0x3e856613	0.2605444
99	0x3de8cb35	0.11366884
100	0x3ea5d5bb	0.32389626
101	0x3ed5217b	0.41627106
102	0x401e4225	2.4727871
103	0x3f589034	0.84595037
104	0x3f114d51	0.567586
105	0x3e527a54	0.20554477
106	0x3ed76d07	0.4207537
107	0x3e75de4b	0.2401058
108	0x3ddf3e5c	0.10900566
109	0x3e988566	0.29789275
110	0x3f411f94	0.7543881
111	0x3e94aa50	0.29036188
112	0x3e8ea6ff	0.27861783
113	0x3f4720a0	0.77784157
114	0x3f152977	0.58266395
115	0x3e540a0a	0.20706955
116	0x3ef1d50c	0.47232854
117	0x3f1f04c1	0.6211663
118	0x3e7affba	0.24511614
119	0x3e989dd6	0.2980792
120	0x3f21c0a0	0.6318455
121	0x3fc2c790	1.5217152
122	0x3e91373c	0.28362453
123	0x3d8475c6	0.06467776
124	0x3fa91421	1.3209268
125	0x3ddb6e8e	0.10714446
126	0x3e086384	0.13319212
127	0x3f04fd7f	0.51949304
128	0x3ea1a989	0.31574658
129	0x3fd93f66	1.6972473
130	0x3e2f0f2b	0.1709563
131	0x3e3d2c9d	0.1847405
132	0x3ea5c607	0.32377645
133	0x3f289224	0.6584799
134	0x3ea3c5de	0.31986898
135	0x3fe6b444	1.8023763
136	0x3dfcb13d	0.12338493
137	0x3eb7f1cf	0.35926673
138	0x3f7978a8	0.9744973
139	0x3ffc3473	1.9703506
140	0x3e69357d	0.2277431
141	0x40791bad	3.8923142
142	0x3f85890b	1.0432447
143	0x3ea34cff	0.3189468
144	0x3f3f19fe	0.74649036
145	0x3fa22503	1.2667545
146	0x3e68c5fa	0.22731772
147	0x3ded4cbd	0.11586902
148	0x3ef6a687	0.48173925
149	0x3ebc584d	0.36786118
150	0x3e069520	0.13142824
151	0x3e3bd552	0.18343094
152	0x3eeb9508	0.4601214
153	0x3d9b3b27	0.07579642
154	0x3df22d4b	0.11825045
155	0x3dbdd248	0.092686236
156	0x3f7c7bbd	0.9862631
157	0x3e3c1d03	0.18370442
158	0x3cc2c9a0	0.023777783
159	0x3ec8da5a	0.3922909
160	0x3ef342c0	0.47511864
161	0x3ff7e606	1.9367073
162	0x3f1d8577	0.61531776
163	0x3e172ef5	0.14764006
164	0x3e1b1bea	0.15147367
165	0x3f8a15a8	1.0787859
166	0x3f0bec49	0.5465742
167	0x3f0d47aa	0.55187476
168	0x3df9a9b5	0.12190572
169	0x3f0bea81	0.546547
170	0x3e3ed4c2	0.18635848
171	0x3ea76ea1	0.3270159
172	0x3f1060cc	0.563977
173	0x3e3f7708	0.1869775
174	0x3ec52b32	0.38509518
175	0x3eeb0da4	0.45908844
176	0x3e97350e	0.29532665
177	0x3d935df6	0.07195656
178	0x3dd0a8ea	0.10188468
179	0x3e8182a9	0.25294998
180	0x3d33e452	0.043918915
181	0x3e4a56e2	0.19759706
182	0x3f29da0a	0.66348326
183	0x3eff0126	0.49805564
184	0x3eb2d113	0.34925136
185	0x3f5e7ad6	0.8690618
186	0x3f005187	0.501244
187	0x3f86283f	1.0481032
188	0x3da21280	0.07913685
189	0x3e700f56	0.2344335
190	0x3e88ae5a	0.2669552
191	0x3e141b2f	0.14463495
192	0x3db7b0cf	0.089692704
193	0x3e18d508	0.14925015
194	0x3ef555a1	0.47916892
195	0x3e59b550	0.21260571
196	0x3eeec89f	0.46637437
197	0x4002b60e	2.0423617
198	0x3d7f6ad1	0.062357727
199	0x3fd48aa2	1.6604807
200	0x3e034bfa	0.12821952
201	0x3ec44fa8	0.38342023
202	0x3f5cb82b	0.8621852
203	0x3df63e67	0.12023621
204	0x3e3bd54f	0.1834309
205	0x3e43df11	0.19128062
206	0x3f868f96	1.0512569
207	0x3ec2d984	0.38056576
208	0x3edf4d41	0.43613628
209	0x3f3d0f4a	0.73851454
210	0x3f052a4d	0.5201767
211	0x3f23dc5a	0.64008105
212	0x3ecd91ce	0.40150303
213	0x3e7f4cdc	0.24931663
214	0x3f0111cf	0.504178
215	0x3fe7285c	1.8059192
216	0x3e272647	0.16323195
217	0x3e6f04b8	0.23341644
218	0x3f465128	0.77467585
219	0x40307425	2.757089
220	0x3ea963b7	0.3308389
221	0x3f1c4f4b	0.6105849
222	0x3f29d040	0.6633339
223	0x3f444064	0.7666075
224	0x3e30b854	0.17257816
225	0x3ee1ced7	0.4410312
226	0x3dc41999	0.09575195
227	0x3e129e68	0.1431824
228	0x3f3464d7	0.7046637
229	0x3e364d49	0.1780292
230	0x3e043462	0.12910607
231	0x3e7fb914	0.24972945
232	0x3e7acc2e	0.24491951
233	0x3e506cd5	0.20354016
234	0x400fa79e	2.2446055
235	0x3d89c21b	0.06726476
236	0x3f0a7c80	0.5409622
237	0x3e60993c	0.21933454
238	0x3f1b67b7	0.6070513
239	0x3f807947	1.0037011
240	0x3fb9fffe	1.4531248
241	0x3d0d7ea2	0.034544595
242	0x3e9fa8e3	0.31183538
243	0x3ee6f10a	0.45105773
244	0x3fddfef3	1.7343429
245	0x3fb8b4c3	1.4430164
246	0x3fcc9e66	1.5985839
247	0x3e45b583	0.19307522
248	0x3f3e38e7	0.74305576
249	0x3ea5d81d	0.32391444
250	0x3d9d7769	0.07688791
251	0x3edc1644	0.42985737
252	0x3e82dc65	0.25558773
253	0x3e6fabf6	0.23405442
254	0x3edd7538	0.43253493
255	0x3ebb996e	0.36640495

bn.running_var f4 [512]
0	0x3eae586f	0.34051844
1	0x3fcf15fb	1.6178583
2	0x40df4db8	6.978237
3	0x3f73f1df	0.9529094
4	0x3f997bef	1.1990947
5	0x3fa585ad	1.293142
6	0x3f43529a	0.76297915
7	0x3efc48b3	0.49274215
8	0x4034d765	2.8256466
9	0x3ebf38df	0.37348077
10	0x40169449	2.3528006
11	0x407d998a	3.9624963
12	0x3d6008b5	0.054695804
13	0x3cbeb00e	0.023277309
14	0x3f7dcd07	0.9914097
15	0x3fccbf5c	1.5995898
16	0x404ae12b	3.1699932
17	0x40b15f51	5.5428853
18	0x3f8808a4	1.0627637
19	0x3e8623fe	0.26199335
20	0x3f3a49d4	0.727689
21	0x3ea784a6	0.3271839
22	0x3e5f82da	0.2182726
23	0x3e20b6ef	0.15694784
24	0x3d968178	0.07348913
25	0x3dd796fd	0.105268456
26	0x3e5f1fc7	0.21789466
27	0x3f865867	1.0495728
28	0x3e9e6376	0.30935258
29	0x3d8ffa70	0.07030189
30	0x3f9f4a44	1.2444539
31	0x3f49b3e7	0.78790134
32	0x3f878494	1.0587335
33	0x3db6719c	0.08908388
34	0x3c9260d1	0.017868431
35	0x3f860e03	1.0473026
36	0x3acaa0c4	0.0015459289
37	0x3e0f492e	0.1399276
38	0x3f16a87b	0.5885083
39	0x40d30482	6.5943003
40	0x3d6cd086	0.05781605
41	0x3d3b9bc2	0.04580284
42	0x3cb157e7	0.02164836
43	0x3f898ece	1.0746706
44	0x3e4feacd	0.20304413
45	0x3d960950	0.07325995
46	0x3e99babd	0.30025283
47	0x3f176517	0.59138626
48	0x3e31eea8	0.17376196
49	0x3c41500b	0.011798869
50	0x3e8c2ed7	0.27379486
51	0x3e070824	0.13186699
52	0x3f2348cf	0.6378297
53	0x3ea35078	0.3189733
54	0x3dafa495	0.085763134
55	0x3ec075bf	0.37589833
56	0x40ab16b0	5.3465195
57	0x3e494fb4	0.1965931
58	0x3fc6afa7	1.5522355
59	0x3ef76364	0.48318017
60	0x3e95f9bc	0.29292095
61	0x3fc3d6c6	1.5299919
62	0x3fee14c6	1.860009
63	0x41172784	9.447147
64	0x3eef7269	0.46766976
65	0x3e82635c	0.2546643
66	0x3f726acb	0.94694203
67	0x3e9ae55a	0.30253106
68	0x4006a0fb	2.1035755
69	0x40b340da	5.6016665
70	0x3eed121a	0.46302873
71	0x3f4d6623	0.80233973
72	0x3cac4392	0.021028314
73	0x3f60761c	0.8768022
74	0x3e4bb6dc	0.19893974
75	0x3fe3e522	1.7804301
76	0x3f1af13c	0.60524344
77	0x3c8aa1ca	0.01692285
78	0x3dc23330	0.094824195
79	0x3f8b11d3	1.0864815
80	0x3eb5080a	0.35357696
81	0x3f60a431	0.87750536
82	0x3e23dca7	0.16002141
83	0x3f351b7e	0.70745075
84	0x3e252eaf	0.1613109
85	0x4075ebb4	3.8425112
86	0x3dd29346	0.102819964
87	0x3c849724	0.01618535
88	0x3fe59eba	1.7939065
89	0x3d202069	0.03909341
90	0x3f58a48d	0.84626085
91	0x3fa66475	1.2999407
92	0x3f7048ab	0.9386088
93	0x3ebfa15c	0.37427795
94	0x3cf9540c	0.030435584
95	0x3df21add	0.1182153
96	0x3eac9fc0	0.3371563
97	0x3e59a75a	0.21255246
98	0x3eaeb220	0.34120274
99	0x3e6c9f1e	0.23107573
100	0x3ed65dcd	0.4186844
101	0x3f4b2c53	0.7936451
102	0x4097486d	4.727591
103	0x3f503323	0.8132803
104	0x3f7f901f	0.99829286
105	0x3d8c674c	0.0685564
106	0x3f8c2e8d	1.0951706
107	0x3e87a16f	0.26490352
108	0x3d93d5f6	0.07218544
109	0x3e46855d	0.19386812
110	0x3fb93a1d	1.447086
111	0x3ecd827e	0.4013862
112	0x3e36ed43	0.17863946
113	0x3f09dcb2	0.5385238
114	0x3ece0704	0.40239727
115	0x3e27bcda	0.16380635
116	0x3e7ff7e1	0.24996902
117	0x3ef8fb07	0.4862902
118	0x3e5abfda	0.21362248
119	0x3e811ee8	0.25218892
120	0x3ee95867	0.45575258
121	0x40272a4e	2.611957
122	0x3edd8b6a	0.43270427
123	0x3ce141ec	0.027497254
124	0x401075b7	2.2571847
125	0x3d4ba571	0.049718324
126	0x3d8130ee	0.06308161
127	0x3f6ae192	0.91750443
128	0x3ebb432d	0.3657469
129	0x405faec8	3.4950428
130	0x3de51b41	0.11186839
131	0x3e154818	0.14578283
132	0x3e85a874	0.26105082
133	0x3f4106bc	0.754009
134	0x3eb521c9	0.3537734
135	0x41303960	11.014008
136	0x3d75e84c	0.06003599
137	0x3ece739f	0.40322587
138	0x40043994	2.0660143
139	0x40fc59a9	7.885945
140	0x3e04fd38	0.1298722
141	0x41d3ce05	26.475595
142	0x403b837a	2.9298997
143	0x3ee812f9	0.45326975
144	0x3f439eb2	0.76414025
145	0x40094966	2.145105
146	0x3e4b5793	0.19857626
147	0x3d3f2ebe	0.046675436
148	0x3e93bcae	0.2885489
149	0x3ee5f67c	0.44914615
150	0x3d80ad0b	0.06283005
151	0x3e6a52ff	0.22883223
152	0x3e870d85	0.26377502
153	0x3c8de5f3	0.017321562
154	0x3d295bd2	0.041347332
155	0x3d491cc9	0.049099717
156	0x3fa88257	1.3164777
157	0x3d5685bb	0.05237363
158	0x3b85666c	0.0040710475
159	0x3f8355ab	1.0260519
160	0x3f54efd2	0.83178437
161	0x40f8dfd5	7.7773232
162	0x3f077048	0.529057
163	0x3dde06a9	0.10841114
164	0x3da33322	0.07968737
165	0x3f8a2a3a	1.0794137
166	0x3eb760d3	0.3581606
167	0x3ea340e0	0.31885433
168	0x3db59af8	0.088674486
169	0x3ea7a93f	0.32746312
170	0x3daa8388	0.08325869
171	0x3e8e27e3	0.27764806
172	0x3eb2dcde	0.34934133
173	0x3ded82dc	0.11597225
174	0x3e988f9a	0.2979706
175	0x3e5179f7	0.20456682
176	0x3dfc6eb8	0.123258054
177	0x3c9f09f8	0.019413933
178	0x3ea43d4f	0.32078025
179	0x3dc62bce	0.09676324
180	0x3c6266d2	0.01381846
181	0x3dd123c9	0.102119036
182	0x3f0984c7	0.5371823
183	0x3f01acf5	0.50654536
184	0x3f116571	0.5679541
185	0x3f648e51	0.8927966
186	0x3f12029a	0.5703522
187	0x3faf5533	1.3697876
188	0x3ca7c2c2	0.02047861
189	0x3e41ddf9	0.18932332
190	0x3e5223b0	0.20521426
191	0x3dcb7710	0.09934819
192	0x3ce47516	0.027887862
193	0x3dd88f4c	0.10574207
194	0x3e958a1a	0.29206926
195	0x3eae40f2	0.34033924
196	0x3f04d920	0.51893806
197	0x40c9ca72	6.3059626
198	0x3c41f219	0.011837506
199	0x4048a013	3.1347702
200	0x3dc974b4	0.098367125
201	0x3e451cdb	0.19249289
202	0x3f356067	0.70850223
203	0x3ddbd046	0.107330844
204	0x3e5eb85b	0.21750014
205	0x3e50ff8f	0.20409988
206	0x402dbeaa	2.7147622
207	0x3e68e398	0.2274307
208	0x3e7012ca	0.23444667
209	0x3f37ab2e	0.71745574
210	0x3e95e161	0.29273513
211	0x3f71eb90	0.94500065
212	0x3e58a589	0.21156897
213	0x3e0baf64	0.13641125
214	0x3e84d7cd	0.25945893
215	0x408214e6	4.065051
216	0x3e01ff1c	0.12694973
217	0x3e5074b1	0.20357014
218	0x401daff7	2.463865
219	0x41066e30	8.401901
220	0x3eee56ec	0.4655069
221	0x3f8e5fb2	1.1122954
222	0x3f02405b	0.5087945
223	0x3f3af2f7	0.73026985
224	0x3db097e0	0.08622718
225	0x3e902e1b	0.28160176
226	0x3db1be1b	0.08678838
227	0x3d926d7a	0.07149787
228	0x3fe8b399	1.8179809
229	0x3dc29eff	0.09502982
230	0x3d58731f	0.052844163
231	0x3de938ab	0.11387762
232	0x3e49ce14	0.19707519
233	0x3e070981	0.13187219
234	0x40c17b56	6.0463057
235	0x3caaa254	0.020829357
236	0x3ec77d96	0.38963002
237	0x3e4cf96a	0.20017019
238	0x3ee65a28	0.4499066
239	0x40962b77	4.692806
240	0x40e93503	7.287721
241	0x3c064a11	0.00819637
242	0x3f18858d	0.5957878
243	0x3f2578d4	0.64637494
244	0x410355bc	8.208431
245	0x40198616	2.398809
246	0x4057532a	3.364451
247	0x3e80f4cf	0.25186774
248	0x3f2b6cc1	0.6696282
249	0x3e176cc7	0.14787589
250	0x3d414df1	0.04719347
251	0x3facfa92	1.3513968
252	0x3e7fe266	0.24988708
253	0x3e695626	0.2278677
254	0x3e8ae186	0.27125186
255	0x3e93db38	0.28878188

fc2.weight f4 [256, 516]
0	0xbbc406b6	-0.0059822453
1	0xbc149672	-0.009069072
2	0x3d87a5e4	0.06623438
3	0xb8b96f4b	-8.842217e-05
4	0x3d9d0a94	0.07668033
5	0xbbc02470	-0.0058637187
6	0xbb4ac0ae	-0.00309376
7	0x3be81992	0.0070831263
8	0xbcdb0194	-0.026734151
9	0x3a2ff170	0.0006711697
10	0x3c1665f2	0.009179579
11	0x3cc4e1d5	0.024033466
12	0x3c0b1cc6	0.008490747
13	0xbb382562	-0.0028098454
14	0xbb96c667	-0.004601288
15	0x3cbbfc6c	0.022947513
16	0xbc59e7eb	-0.013299922
17	0xbe477813	-0.19479398
18	0xbcc36f98	-0.023856923
19	0x3c8e9210	0.017403632
20	0xbc2551de	-0.010090319
21	0x3c787806	0.015165335
22	0x3ba3f246	0.0050032465
23	0xbb263256	-0.0025359592
24	0x3b9b8ab1	0.004746758
25	0xbc182ec6	-0.009288495
26	0x3bdc1147	0.006715927
27	0x3b53fc5f	0.003234647
28	0xbb386f56	-0.0028142533
29	0x3c7e88a7	0.01553551
30	0x3c168316	0.009186527
31	0x3b56b5b1	0.0032762105
32	0x3b945838	0.004527118
33	0x3bd74708	0.006569747
34	0xbb1b8c7a	-0.0023734854
35	0x3b2d25e8	0.00264203
36	0x398ad836	0.000264825
37	0x3b133e83	0.002246768
38	0xbcc82930	-0.024433702
39	0x3db23339	0.08701176
40	0xba475305	-0.00076036184
41	0xbb8a6827	-0.0042238417
42	0xbc23cd17	-0.009997628
43	0x3c08e181	0.008354546
44	0x3b95de53	0.0045736223
45	0x3b388a3b	0.0028158564
46	0x3b85ec17	0.004086982
47	0xbbbac0c8	-0.005699251
48	0xbb8adf58	-0.0042380504
49	0xba6cdbd7	-0.0009035444
50	0xbb61273c	-0.003435566
51	0x3c1dc6a3	0.009629878
52	0x3c7147c8	0.014726587
53	0x3ba309ad	0.0049755187
54	0x3b861e44	0.0040929634
55	0x3c4b5374	0.0124100335
56	0x3a75afa9	0.00093721837
57	0xbbbb84a0	-0.0057225972
58	0xbc0b81ff	-0.00851488
59	0xbc96879f	-0.018375216
60	0xbbc021e1	-0.0058634137
61	0xbc7bb976	-0.015364042
62	0xbc23edb4	-0.010005403
63	0x3b91c06a	0.0044479864
64	0x3c7cf246	0.015438622
65	0x3c6aea41	0.014338077
66	0x3c8b3882	0.016994718
67	0x3ce24695	0.027621547
68	0xbd3fc48d	-0.046818305
69	0xbb11f891	-0.0022273401
70	0xbb9a9b83	-0.0047182455
71	0xbc428d85	-0.011874561
72	0xbb232551	-0.0024894068
73	0xbc17b235	-0.009258796
74	0x3c583430	0.013196036
75	0x3b67c68a	0.0035366141
76	0xbe0ccbbc	-0.13749593
77	0x39d627d4	0.00040846935
78	0xbb2edeaa	-0.002668301
79	0x3c37903a	0.01120382
80	0x3a3828c6	0.00070251187
81	0x3bd856f3	0.006602162
82	0xbc68622b	-0.014183561
83	0x3d0c5b7f	0.034266945
84	0x3c57d72c	0.01317386
85	0xbd2248bd	-0.03962015
86	0xbb8dd66c	-0.0043285396
87	0x3bab4d58	0.005227726
88	0xbcacb749	-0.02108349
89	0xb9c3ba78	-0.00037332228
90	0x3c16e30a	0.009209404
91	0x3aaad56d	0.0013033577
92	0xbb4e34db	-0.003146461
93	0xbbdab8b4	-0.0066748504
94	0x3ade29ad	0.0016949676
95	0xbb4d4974	-0.00313243
96	0xbbb3fdcd	-0.005492902
97	0x39085e20	0.00013005035
98	0xbc2d9b02	-0.010596039
99	0x3d303af6	0.04302498
100	0x3bfa9fb9	0.007648435
101	0x3921116c	0.00015360647
102	0xbc316f2e	-0.01082973
103	0x3a8254e1	0.0009943509
104	0x3c002025	0.007820164
105	0x3927ae2a	0.00015991242
106	0x3ce6f9d9	0.028195309
107	0xbc939247	-0.018014086
108	0x3b70e26e	0.0036756056
109	0x3c8d94b8	0.017282829
110	0x3c31314f	0.010814979
111	0xbb92b9b1	-0.0044777025
112	0xbadf96e3	-0.0017058518
113	0xbab3cb25	-0.0013717158
114	0x3b6f5432	0.003651869
115	0xbc8f4b1a	-0.017491866
116	0xbc1ecee7	-0.009692884
117	0x3bc7e5eb	0.0061004064
118	0xbb940ec8	-0.0045183636
119	0x3c04fd20	0.00811699
120	0xbc0e35c7	-0.008679814
121	0x3b713302	0.0036804085
122	0x3c5ae5ca	0.01336045
123	0xbaa08e80	-0.00122495
124	0xbc92b10b	-0.017906686
125	0xb8b96f87	-8.842261e-05
126	0xbbaf253c	-0.005345015
127	0x3bc7af53	0.0060938983
128	0xbc8c35ba	-0.017115463
129	0x3c36878f	0.011140718
130	0x3b6db8cf	0.0036273485
131	0xba4c2001	-0.00077867514
132	0x3c53c001	0.012924195
133	0x3bcfc87f	0.0063410397
134	0xbcb10532	-0.021608923
135	0xbe022213	-0.12708311
136	0x3ae69c62	0.0017594213
137	0x3c132e3d	0.008983192
138	0xbdedcbdb	-0.11611148
139	0x3e0dd4b2	0.13850668
140	0xbb9aae95	-0.004720519
141	0xbd807458	-0.06272191
142	0x3c5232f0	0.012829527
143	0x3c455993	0.012045282
144	0xbb34d63d	-0.0027593516
145	0x3c68bb16	0.014204761
146	0xba151ce6	-0.0005688205
147	0xbabadd7f	-0.0014256685
148	0x3bd04bcd	0.0063566924
149	0x3cb81bb4	0.022474147
150	0xbc0dd6b7	-0.008657149
151	0x3a297802	0.0006464721
152	0x3c316f49	0.010829755
153	0xbaa8c097	-0.0012874779
154	0xbc14d2f9	-0.009083503
155	0xbbb96cd7	-0.0056587267
156	0x3cee89ea	0.029118497
157	0x3ab7dbc1	0.0014027284
158	0x3af5c17c	0.001874968
159	0xba999349	-0.0011716868
160	0x3a08db3d	0.00052206573
161	0x3d6a27c6	0.057166837
162	0x3c4bb91b	0.012434269
163	0x3b9f856a	0.004868199
164	0x3c10715d	0.00881609
165	0x3b61c403	0.0034449107
166	0xbb226645	-0.0024780196
167	0xbbd0dacf	-0.0063737403
168	0x3bb91e72	0.0056493813
169	0xbb812b4d	-0.0039419294
170	0x3bcbca10	0.006219156
171	0x3c073b67	0.008253909
172	0xbafd020c	-0.0019302978
173	0xbbec403e	-0.0072098067
174	0xbd96e4e4	-0.07367876
175	0xbb3c81e1	-0.0028763937
176	0xbbcbfc28	-0.0062251277
177	0xba98b285	-0.0011649883
178	0xbdc55b80	-0.09636593
179	0x3ad43e0d	0.0016192809
180	0x3a6d30a1	0.0009048079
181	0x3b1c6543	0.0023864068
182	0xbb0f08db	-0.0021825347
183	0xbcdbe8ec	-0.026844464
184	0x3ce94cb2	0.028478954
185	0xbc6384b6	-0.013886621
186	0xbc9cfed1	-0.019164475
187	0xbcde8a13	-0.027165448
188	0xbb97241a	-0.004612458
189	0xbc0f8fef	-0.008762344
190	0xbc0ac10a	-0.008468876
191	0xbc62a2d8	-0.01383277
192	0x3b359de5	0.002771252
193	0x3b9d17f8	0.004794117
194	0xbb200b9f	-0.002442099
195	0x3c80f276	0.015740614
196	0xbb01badd	-0.0019795217
197	0xbc283190	-0.010265723
198	0x3c2dfdd5	0.0106196
199	0x3c5015cc	0.012700509
200	0xbb37ef72	-0.0028066305
201	0x3ad4f468	0.0016247155
202	0xbb551d96	-0.0032518855
203	0xb8a6e435	-7.958004e-05
204	0x3c4f9030	0.012668654
205	0xbc9e97c3	-0.019359475
206	0xbc2a3d5e	-0.010390608
207	0xbbeac2e0	-0.007164344
208	0xbbce9c0a	-0.0063052224
209	0xbbc2712c	-0.0059339013
210	0xbb7f829f	-0.0038987768
211	0x3c341b18	0.010992788
212	0x3a7c3c5c	0.00096220314
213	0x3c0f5b98	0.008749865
214	0xb9a92716	-0.00032263313
215	0x3d23856e	0.03992217
216	0x3ba9e8e9	0.0051852358
217	0x3c575fde	0.013145415
218	0x3d81c1d4	0.06335798
219	0x3c90aa86	0.017659437
220	0xbc51d945	-0.012808149
221	0x3c7e1389	0.015507587
222	0xbb8882eb	-0.0041659973
223	0x3a6cbd8d	0.0009030931
224	0x3b447b47	0.0029980706
225	0x3b5b461e	0.003345854
226	0xbc9edc9d	-0.019392306
227	0xbbb4d991	-0.0055191
228	0xbd954125	-0.07287816
229	0x3c1293db	0.008946384
230	0x3c1cb4b4	0.009564567
231	0xba37d91c	-0.0007013248
232	0x3aca9558	0.0015455885
233	0xbc3de643	-0.011590543
234	0x3bd46e4a	0.006482874
235	0xbb557f92	-0.0032577259
236	0x3c898dbe	0.01679122
237	0x3a94be0b	0.0011348141
238	0xbc03d4ea	-0.008046368
239	0xbddcec36	-0.10787241
240	0x3d0c4d25	0.03425326
241	0xb9c5275f	-0.00037604102
242	0x3ccb45e3	0.024813598
243	0xbbb12d86	-0.005407038
244	0xbd106a01	-0.035257343
245	0xbc975796	-0.018474381
246	0xbd181b7b	-0.037135582
247	0x3c4bc923	0.012438091
248	0x3bb13277	0.005407627
249	0xbaa4f8fa	-0.0012586408
250	0x3aee7589	0.0018192987
251	0xbd2d9c20	-0.04238522
252	0xbc0bfd90	-0.008544341
253	0x3b46760a	0.003028276
254	0x3c4c8bdc	0.012484517
255	0xbb0699b3	-0.002053839
