checkpoint_critic_00.pth (torch_old, 722896 bytes, 11 tensors)

fc1.weight f4 [512, 24]
0	0xbb416f8b	-0.0029515948
1	0xbb60d200	-0.0034304857
2	0xbc1e95d1	-0.009679274
3	0xbbfe1bf2	-0.007754796
4	0x3c5752fb	0.013142343
5	0x3a7e00f2	0.0009689472
6	0xbc1e95d1	-0.009679274
7	0xbbfe1bf2	-0.007754796
8	0xbb2278ae	-0.002479117
9	0xbb83f605	-0.0040271305
10	0xbb271fb6	-0.002550108
11	0xbb0e2df8	-0.002169488
12	0x3c623639	0.013806873
13	0x3a9457e3	0.0011317696
14	0xbb271fb6	-0.002550108
15	0xbb0e2df8	-0.002169488
16	0x3a586a1c	0.00082555576
17	0xbb5f2762	-0.0034050574
18	0x3c43499d	0.011919406
19	0xba8a6045	-0.0010557255
20	0x3c5b9349	0.013401815
21	0x3a30fd07	0.0006751571
22	0x3c43499d	0.011919406
23	0xba8a6045	-0.0010557255
24	0xbb876960	-0.0041324347
25	0x3ac6f1e1	0.0015178287
26	0xbca44afb	-0.020055285
27	0xbc32bf37	-0.010909847
28	0x3a1a05c3	0.00058754924
29	0x399b77bf	0.00029653122
30	0xbca44afb	-0.020055285
31	0xbc32bf37	-0.010909847
32	0xbbbb6a79	-0.0057194796
33	0x3a551b78	0.00081293983
34	0xbc471798	-0.012151621
35	0xbc3ddc8d	-0.011588228
36	0x3adceb88	0.0016854862
37	0x384f6f25	4.9456157e-05
38	0xbc471798	-0.012151621
39	0xbc3ddc8d	-0.011588228
40	0xbbd3febd	-0.006469576
41	0xba5fdbd1	-0.000853953
42	0xbc0d0168	-0.008606292
43	0xbca37955	-0.019955317
44	0x3b155e82	0.0022791927
45	0xb86d7506	-5.661419e-05
46	0xbc0d0168	-0.008606292
47	0xbca37955	-0.019955317
48	0x39d01452	0.0003968799
49	0x39fb2874	0.0004790459
50	0xbcaa700c	-0.020805381
51	0xbaac9d1d	-0.0013169382
52	0x3adba2ea	0.0016756926
53	0xba600473	-0.0008545585
54	0xbcaa8910	-0.02081731
55	0xbaac9d1d	-0.0013169382
56	0x376644a4	1.372505e-05
57	0x3a1a620c	0.0005889244
58	0xbc391437	-0.0112963235
59	0xbb14fe1d	-0.002273447
60	0x3b11df33	0.0022258281
61	0xba099569	-0.0005248399
62	0xbc390d1a	-0.011294628
63	0xbb14fe1d	-0.002273447
64	0xb8959490	-7.1325456e-05
65	0x39e32179	0.00043321753
66	0xbbc2e4ab	-0.0059476695
67	0xbba9b8d8	-0.005179506
68	0x3b30f61f	0.0027002168
69	0xb937d002	-0.00017529729
70	0xbbc2fb33	-0.0059503554
71	0xbba9b8d8	-0.005179506
72	0xbb6d1fec	-0.0036182357
73	0x3aec42aa	0.0018025239
74	0xbb8acd2a	-0.0042358832
75	0xbc5f7d8d	-0.0136407735
76	0xbb210d21	-0.0024574476
77	0xbb08fac8	-0.002090143
78	0xbb8acd2a	-0.0042358832
79	0xbc5f7d8d	-0.0136407735
80	0xba7a3399	-0.0009544432
81	0xba3e2565	-0.0007253497
82	0x3c3b4971	0.011431084
83	0xbc6e7a75	-0.014555563
84	0xbb11b550	-0.0022233315
85	0xba5380b8	-0.0008068192
86	0x3c3b4971	0.011431084
87	0xbc6e7a75	-0.014555563
88	0x3b8ac9dc	0.0042354893
89	0xbb2bc543	-0.0026210106
90	0x3ca19690	0.019725114
91	0xbc8355ec	-0.016032182
92	0xbaf1af67	-0.0018439115
93	0x3a57b527	0.0008228593
94	0x3ca19690	0.019725114
95	0xbc8355ec	-0.016032182
96	0xbdaa1df7	-0.083064966
97	0x3e13f83e	0.14450166
98	0x3cbc3731	0.022975536
99	0x3ab90d23	0.0014118295
100	0x3e9f566a	0.31120616
101	0xbd80390c	-0.06260881
102	0xbbe05b6d	-0.0068468363
103	0x3ab8a3ab	0.0014086863
104	0xbd2d8e33	-0.04237194
105	0x3df17a6d	0.11790929
106	0x3c9f9a80	0.019482851
107	0xbd7d7f0f	-0.06188875
108	0x3e0af765	0.13570936
109	0xbd22c7dc	-0.039741382
110	0xbbf6f613	-0.0075366586
111	0xbd7d87ee	-0.06189721
112	0xbd8b30f4	-0.067964464
113	0x3dbfdea9	0.09368641
114	0x3c9d3388	0.019189611
115	0xbebd9321	-0.37026313
116	0xbdd33a90	-0.10313904
117	0x3e353c44	0.17698771
118	0xbc6bfb42	-0.014403166
119	0xbebd92f7	-0.37026188
120	0xbcda2b1d	-0.026631886
121	0x3a92b9a7	0.0011194245
122	0xbb9327b1	-0.0044908156
123	0x3bd2bd69	0.006431271
124	0xbc5040cf	-0.012710764
125	0x3bab93ae	0.0052361107
126	0xbb9327b1	-0.0044908156
127	0x3bd2bd69	0.006431271
128	0xbca1be2f	-0.019744007
129	0x3b23d626	0.0024999469
130	0x3d1c4644	0.038152948
131	0xbb00bac4	-0.001964257
132	0xbc5646b5	-0.013078381
133	0x3bb611e3	0.0055563315
134	0x3d1c4644	0.038152948
135	0xbb00bac4	-0.001964257
136	0xbca2b8c5	-0.019863496
137	0x3b84e01f	0.0040550376
138	0xbcdd7850	-0.027034909
139	0xb9b46f0f	-0.0003441502
140	0xbc51a602	-0.012795927
141	0x3b9705a1	0.0046088253
142	0xbcdd7850	-0.027034909
143	0xb9b46f0f	-0.0003441502
144	0x3bd70f43	0.0065630986
145	0x3ae3df1b	0.0017385216
146	0x3ca6f18d	0.020378852
147	0x3c100244	0.008789603
148	0x3bbfe6cc	0.0058563706
149	0xba4ef088	-0.00078941183
150	0x3ca6f18d	0.020378852
151	0x3c100244	0.008789603
152	0x3bd3dd6c	0.0064656045
153	0x3b188446	0.00232722
154	0xbc646916	-0.01394107
155	0x3baaed97	0.005216311
156	0x3bb77e40	0.005599767
157	0x3a35fdde	0.0006942431
158	0xbc646916	-0.01394107
159	0x3baaed97	0.005216311
160	0x3c4932a8	0.012280144
161	0x3b5340a2	0.003223457
162	0x3d0cdc1e	0.034389608
163	0x3b83e7e3	0.004025446
164	0x3b9f94be	0.0048700264
165	0x3b0c245e	0.0021383981
166	0x3d0cdc1e	0.034389608
167	0x3b83e7e3	0.004025446
168	0x3a323d32	0.000679928
169	0x38679f7e	5.522323e-05
170	0x3ad2a352	0.0016070402
171	0xba98055f	-0.001159828
172	0xb9a2fa5e	-0.00031085586
173	0xba8a4db3	-0.0010551721
174	0x3ad2a352	0.0016070402
175	0xba98055f	-0.001159828
176	0x3a2b95c3	0.00065454486
177	0xb9e0da65	-0.00042887326
178	0x39f42d92	0.0004657326
179	0xbadadcd4	-0.0016697892
180	0xba3b614c	-0.0007147982
181	0xba4bd04e	-0.0007774875
182	0x39f42d92	0.0004657326
183	0xbadadcd4	-0.0016697892
184	0x3b17da71	0.0023170973
185	0xba458225	-0.00075343467
186	0x3c80e115	0.015732327
187	0xbb465525	-0.0030263152
188	0xbaa39f8e	-0.0012483464
189	0xba06fc52	-0.0005149293
190	0x3c80e115	0.015732327
191	0xbb465525	-0.0030263152
192	0xbaf87848	-0.0018956745
193	0x39f0466d	0.00045828838
194	0xbbd0d569	-0.0063730967
195	0xbb4f0271	-0.0031587149
196	0x3acfa8e3	0.0015843179
197	0x39c204f3	0.0003700625
198	0xbbd0d569	-0.0063730967
199	0xbb4f0271	-0.0031587149
200	0xbb1ecbee	-0.0024230438
201	0x39fe689a	0.0004852459
202	0xbbfdbbb0	-0.0077433214
203	0xba543ac2	-0.0008095914
204	0x3b04f114	0.0020285295
205	0x3a32d71a	0.0006822214
206	0xbbfdbbb0	-0.0077433214
207	0xba543ac2	-0.0008095914
208	0xbb203013	-0.0024442717
209	0x39657e94	0.00021886296
210	0x3b2b6ad3	0.0026156201
211	0xbb964f96	-0.004587124
212	0x3b13f01e	0.002257354
213	0x3a829ef4	0.0009965585
214	0x3b2b6ad3	0.0026156201
215	0xbb964f96	-0.004587124
216	0x3c84511e	0.016151961
217	0xbadb4909	-0.001673014
218	0x3ca80324	0.02050931
219	0x391ac54b	0.00014760082
220	0xbb9334b3	-0.004492366
221	0xbb8be9fa	-0.0042698355
222	0x3ca80324	0.02050931
223	0x391ac54b	0.00014760082
224	0x3c8931a1	0.016747298
225	0xbac08655	-0.0014688472
226	0x3cb6a49e	0.022295292
227	0x3b8edd28	0.00435986
228	0xbbacc634	-0.005272651
229	0xbb8f9656	-0.004381935
230	0x3cb6a49e	0.022295292
231	0x3b8edd28	0.00435986
232	0x3c7baa19	0.015360379
233	0xba563f6e	-0.0008172904
234	0xbb6ae022	-0.003583916
235	0x3bc81575	0.0061060735
236	0xbbd91d38	-0.0066257976
237	0xbb9e40b0	-0.0048294887
238	0xbb6ae022	-0.003583916
239	0x3bc81575	0.0061060735
240	0xbbfb02a5	-0.0076602274
241	0xbbb453ad	-0.005503139
242	0xbc605f60	-0.013694614
243	0xbb4c5745	-0.0031179946
244	0xbc538ec0	-0.012912452
245	0xbb565f2b	-0.0032710533
246	0xbc605f60	-0.013694614
247	0xbb4c5745	-0.0031179946
248	0xbbaad87f	-0.0052137966
249	0xbbc14ccd	-0.005899048
250	0x3c34a887	0.011026508
251	0xb942da02	-0.00018582496
252	0xbc5d3710	-0.013501897
253	0xbb5d54e0	-0.0033772513
254	0x3c34a887	0.011026508
255	0xb942da02	-0.00018582496

fc1.bias f4 [512]
0	0x3ad0d091	0.0015931298
1	0xbb8dafc5	-0.004323932
2	0xba97154f	-0.0011526736
3	0xbb374c78	-0.0027969163
4	0xbcc229dc	-0.0237016
5	0x3a528631	0.00080308603
6	0xbb08b292	-0.002085839
7	0xbada52d7	-0.0016656768
8	0xb88c28e6	-6.683338e-05
9	0xbab1ff79	-0.0013580165
10	0x3b3fcfb9	0.00292681
11	0xbbf74953	-0.0075465827
12	0x388653cb	6.4052256e-05
13	0xb8a7e372	-8.0055455e-05
14	0xba3f886c	-0.00073064
15	0x39f32b1e	0.00046380697
16	0xbc596ce6	-0.013270592
17	0xb7f4f010	-2.9198854e-05
18	0x3bb6bf65	0.005577015
19	0xba9f4ee1	-0.0012154245
20	0xba8822f6	-0.0010386396
21	0xba37d8b1	-0.00070131855
22	0xbaacda8f	-0.0013187694
23	0x3946e746	0.00018968908
24	0xb9f8f7ef	-0.0004748697
25	0xbab230d0	-0.001359487
26	0xbc01ee62	-0.00793037
27	0xbaeada4e	-0.0017917843
28	0xb9510a8f	-0.00019935727
29	0x3bf384db	0.007431609
30	0xba5c77b0	-0.0008410169
31	0x379ccf00	1.8693041e-05
32	0xbbb2041d	-0.0054326192
33	0xbb609fa5	-0.0034274843
34	0xb8057b26	-3.1824362e-05
35	0xba88f34e	-0.0010448487
36	0xbb90f63c	-0.0044238847
37	0xbac98139	-0.0015373594
38	0xbb1ca07a	-0.0023899362
39	0xbd368796	-0.0445629
40	0xbb7e4a2a	-0.003880153
41	0xb8774a83	-5.8958783e-05
42	0xbb7e655f	-0.0038817746
43	0xb7fc4f79	-3.0077748e-05
44	0xbb272266	-0.002550268
45	0xbb814831	-0.0039453735
46	0xba41f17c	-0.00073983497
47	0xba072331	-0.0005155085
48	0x3aa312b5	0.0012441488
49	0xb9f24678	-0.0004621034
50	0xbd2b0cec	-0.04176037
51	0xbba91408	-0.0051598586
52	0x37bc1320	2.2420252e-05
53	0xbada465f	-0.0016653052
54	0xba967c89	-0.0011481206
55	0x384e7b5f	4.9229126e-05
56	0xbcc954c1	-0.024576547
57	0x3a1dec64	0.00060242997
58	0xba259ae7	-0.0006317333
59	0xb98ab3cd	-0.00026455373
60	0x38b3f44f	8.580891e-05
61	0xbb199fc4	-0.0023441175
62	0xb9a62015	-0.0003168589
63	0x3ba49a92	0.005023309
64	0xba1202f3	-0.00055698975
65	0xbaa0ff7e	-0.0012283174
66	0xbce4a996	-0.027912896
67	0xbb086a5a	-0.0020815344
68	0x3abeef07	0.0014567085
69	0xb7ab4382	-2.0416224e-05
70	0xbad28c2d	-0.0016063504
71	0x3a55341b	0.00081330695
72	0xba01e88f	-0.00049556134
73	0xbac04dac	-0.0014671586
74	0xbae43c2d	-0.0017412953
75	0xb9331e32	-0.00017082019
76	0xbd20cc10	-0.03925711
77	0x3a167c38	0.0005740556
78	0x3a19c3d1	0.0005865666
79	0x39a2dfab	0.00031065693
80	0xba81498b	-0.0009863836
81	0x3c3b6ea0	0.011439949
82	0xbb0370e2	-0.0020056297
83	0x3a133595	0.00056155893
84	0xbd04750b	-0.032338183
85	0xb8fd3340	-0.00012073526
86	0x3c4c0be6	0.012454009
87	0xbb1e1bc5	-0.0024125439
88	0x3ad9ad0c	0.0016607358
89	0x3b324c1c	0.002720601
90	0x39aa1d6e	0.00032446854
91	0xbaf362b9	-0.001856885
92	0xb99a4704	-0.0002942608
93	0xb9b6a2b9	-0.00034834983
94	0xbaac9493	-0.0013166837
95	0x391824fc	0.00014509627
96	0x39aa5b23	0.0003249283
97	0x37f7f1fa	2.9557374e-05
98	0xb9d2a067	-0.0004017383
99	0xba9cc272	-0.0011959805
100	0xbe317916	-0.17331347
101	0x3a0b6503	0.0005317481
102	0xb96c55e2	-0.00022538708
103	0x3a0c3e35	0.0005349846
104	0xba8de755	-0.0010826389
105	0xbc0dcb93	-0.008654493
106	0x370a22a9	8.233511e-06
107	0x38e0a50d	0.000107118954
108	0xbb43b46c	-0.0029862178
109	0xbc50d8e1	-0.01274702
110	0x3d012290	0.031527102
111	0xba690649	-0.0008889181
112	0x39febd4f	0.000485877
113	0x39632dce	0.0002166547
114	0x3c0b4865	0.008501147
115	0xbbd1428c	-0.006386107
116	0x3aea667e	0.0017883328
117	0xbbcf1ef7	-0.00632083
118	0xb8c751d9	-9.504305e-05
119	0x3cda9924	0.026684351
120	0xba31586c	-0.000676519
121	0xbc8abc23	-0.016935414
122	0xbcc6ce36	-0.02426825
123	0xb9d394c2	-0.0004035589
124	0xba5ac712	-0.0008345704
125	0xba877a65	-0.0010336159
126	0xbb119807	-0.002221586
127	0xbc36d982	-0.011160256
128	0x3a9a79b1	0.0011785534
129	0x3ad4bcfa	0.0016230636
130	0xbb877f41	-0.004135043
131	0xbba030a8	-0.004888613
132	0xb8cf2d85	-9.879008e-05
133	0xbab4ca6f	-0.001379324
134	0xbb04cc89	-0.0020263514
135	0xba4039ce	-0.00073328323
136	0x39914ed5	0.0002771529
137	0xba9d9b23	-0.0012024384
138	0xbdf8680e	-0.12129222
139	0x3c748d98	0.014926337
140	0x3a63136e	0.0008662258
141	0xbcc4715d	-0.023979837
142	0xba08fc1c	-0.00052255555
143	0xb95ab1c6	-0.00020856326
144	0xbb23ae11	-0.0024975578
145	0xba922b42	-0.0011151808
146	0xbb63bc5c	-0.0034749722
147	0xbad735f5	-0.0016419279
148	0xb76334d5	-1.3542555e-05
149	0xb8998d02	-7.321873e-05
150	0x39c2b9c7	0.00037140978
151	0xba88a08e	-0.0010423826
152	0xb89525d4	-7.11192e-05
153	0xbbf24fec	-0.0073947813
154	0xb9cb1d03	-0.00038740793
155	0xba8f8d9d	-0.0010952238
156	0x39b2d835	0.00034111892
157	0x39de1bd5	0.00042363876
158	0x399713a3	0.00028815595
159	0x3b3c9dcd	0.002878058
160	0x39304b07	0.00016812618
161	0xbc72e8b0	-0.014825985
162	0xb8d9938b	-0.00010374848
163	0xb98fe671	-0.00027446778
164	0xba3b259f	-0.000713909
165	0xb7c7e0cd	-2.382733e-05
166	0xba6e2cee	-0.00090856745
167	0xb94709ef	-0.0001898182
168	0xba559cf9	-0.0008148696
169	0xbcae6032	-0.021286104
170	0x3b08565f	0.0020803434
171	0x38768858	5.877795e-05
172	0xba47e52d	-0.00076253974
173	0x3a44ab1f	0.00075023057
174	0xb977e8e5	-0.00023642516
175	0xbb8e090e	-0.0043345755
176	0x3c07a1ad	0.008278293
177	0x3c08ccf0	0.008349642
178	0xbc00211b	-0.007820393
179	0x39220bf4	0.00015453977
180	0xbaa000ca	-0.0012207266
181	0xbb2dd7b7	-0.002652628
182	0x3a479f79	0.0007615011
183	0xbd0d49c1	-0.034494165
184	0xb753a73c	-1.2615517e-05
185	0xbad97273	-0.0016589895
186	0xbbaaec23	-0.005216138
187	0xba3ea391	-0.0007272298
188	0xbaa6c559	-0.0012723609
189	0xb9e46c13	-0.0004356807
190	0x38449e9e	4.6877765e-05
191	0xbb135533	-0.0022481203
192	0xbc176ada	-0.009241784
193	0xba7af0a3	-0.0009572601
194	0x3a6aecc7	0.0008961674
195	0x3bb2fb8a	0.0054621147
196	0xb91c5f1d	-0.00014912752
197	0x38208e81	3.827969e-05
198	0x3bb08bb6	0.0053877486
199	0xb9f92451	-0.0004752004
200	0x356c9914	8.813961e-07
201	0xbbe049ce	-0.0068447357
202	0xb9e052b9	-0.00042786243
203	0x3acea2e9	0.0015765104
204	0xbc44ed39	-0.012019449
205	0xbad961ac	-0.0016584895
206	0xb8c625be	-9.448406e-05
207	0x3b03a3ec	0.0020086719
208	0xbb025535	-0.0019887213
209	0xbbc38d0d	-0.0059677423
210	0x3a8218ec	0.000992564
211	0xbce5c746	-0.028049123
212	0xbb239842	-0.002496258
213	0x3b683ff8	0.003543852
214	0xba72ea0c	-0.0009266443
215	0xbbfc6599	-0.007702541
216	0x38a76c8a	7.9833975e-05
217	0x39b50a47	0.00034530667
218	0xba862402	-0.001023412
219	0x3a7ebd3a	0.0009717528
220	0xbb1de35e	-0.002409182
221	0x3983876a	0.00025087158
222	0xbccc0130	-0.02490291
223	0xbb07541c	-0.0020649498
224	0xbb1b4d27	-0.002369711
225	0x3b6cb7af	0.0036120226
226	0x397f88cf	0.0002436966
227	0x3a12bfaf	0.0005598021
228	0xbaf44b67	-0.0018638194
229	0x3ab0b6fb	0.0013482267
230	0xbe4d6351	-0.20057417
231	0xb9317cec	-0.00016926572
232	0xb85bda4b	-5.241697e-05
233	0x3a9db98d	0.0012033448
234	0xb9a44fae	-0.00031339884
235	0x379f841a	1.9015792e-05
236	0x39980d56	0.00029001635
237	0x3b283c3d	0.002567067
238	0xb9e0cd96	-0.00042877783
239	0xbd4a5c91	-0.049404684
240	0xbc51b766	-0.012800073
241	0x3a1cba17	0.0005978657
242	0x3877a729	5.904507e-05
243	0xb9906d55	-0.0002754728
244	0xbaa079ee	-0.0012243369
245	0x37401d6f	1.1450945e-05
246	0xba041a08	-0.00050392793
247	0xbab178a1	-0.0013539979
248	0x398493dc	0.00025287166
249	0x38671bf9	5.5100743e-05
250	0xbba83097	-0.0051327455
251	0x3a99b331	0.0011726377
252	0x3a03fabb	0.0005034615
253	0x38b05352	8.4078536e-05
254	0xbaf5ae7b	-0.0018744016
255	0x3b0d03b6	0.0021517104

bn.weight f4 [512]
0	0x3b297059	0.0025854318
1	0xbc024210	-0.007950321
2	0x3b206894	0.0024476396
3	0x3b868bbc	0.004106013
4	0x3ef24b51	0.47323087
5	0x3b98b941	0.004660756
6	0xbb398ce5	-0.002831274
7	0x3b70b3f5	0.0036728356
8	0xba97681e	-0.0011551415
9	0x3b8ae4c7	0.004238698
10	0x3badb758	0.0053013973
11	0xbacb0f3b	-0.001549221
12	0x3b20570e	0.002446595
13	0xbb1ece5d	-0.0024231889
14	0xba171d0a	-0.000576452
15	0x3b599954	0.0033202963
16	0x3c862b66	0.016378116
17	0x3a0ee155	0.0005450447
18	0xbb053b21	-0.0020329433
19	0xbb9ac7c0	-0.004723519
20	0x3a92e268	0.001120639
21	0x3a99bc60	0.0011729114
22	0x3b2a4533	0.0025981187
23	0xb98c3c42	-0.00026747776
24	0x3b26e609	0.0025466701
25	0xbab13218	-0.0013518957
26	0xbb8eeedf	-0.0043619717
27	0x3b39a3da	0.0028326423
28	0xbbd0d2dd	-0.006372793
29	0x3c460f47	0.012088603
30	0x3b9f90db	0.004869563
31	0x3b135f47	0.002248721
32	0x3b82dd61	0.0039936756
33	0x3b982d2b	0.0046440563
34	0xb93eda78	-0.00018201198
35	0xba94f0f1	-0.001136331
36	0x3c01536a	0.007893423
37	0x3bc7fa4a	0.006102835
38	0x3af7b4d7	0.0018898499
39	0x3e9ac8c6	0.30231303
40	0xbc70598d	-0.014669788
41	0xbbd2d1b4	-0.00643369
42	0x3b38df9b	0.002820945
43	0xb94274cf	-0.00018544796
44	0x3ba60234	0.0050661806
45	0xbb883311	-0.004156478
46	0x399d7de0	0.00030039158
47	0xbb3b6371	-0.0028593207
48	0x3b664102	0.0035133963
49	0xbb1f2864	-0.002428555
50	0x3e3ea4d0	0.18617558
51	0xbc66366f	-0.014051064
52	0xb946adf8	-0.0001894756
53	0xba8c0221	-0.0010681787
54	0xba1c941d	-0.00059729983
55	0xba7ca058	-0.000963693
56	0xbc93149d	-0.017954165
57	0xbb23106a	-0.002488161
58	0x38c08f18	9.181927e-05
59	0xb9685f27	-0.00022160691
60	0xba2c2004	-0.000656605
61	0xbbf904ce	-0.0075994497
62	0xba26f8d2	-0.00063694746
63	0x3d9025ff	0.07038497
64	0xbb6e4727	-0.0036358328
65	0x3aad6985	0.00132303
66	0x3e5bcec0	0.21465588
67	0x3b4a523d	0.0030871772
68	0xbc18d8be	-0.009329019
69	0x3b5fa546	0.003412561
70	0xbb2c985c	-0.002633593
71	0x3bb6b057	0.0055752206
72	0x3be74497	0.007057737
73	0xbbe1b34f	-0.0068878303
74	0x3a90f839	0.0011060304
75	0xba9eef25	-0.0012125714
76	0x3e2ef8d2	0.17087105
77	0xba5c5631	-0.00084051775
78	0x3abff34c	0.0014644652
79	0x3a9d92e3	0.0012021925
80	0xbb79ccc5	-0.0038116437
81	0xbba421fa	-0.005008933
82	0xbb08c134	-0.002086711
83	0x3b36611d	0.002782888
84	0x3ee25f8e	0.44213527
85	0x3aaa9bf0	0.0013016444
86	0x3b27b2dc	0.0025588786
87	0x3b9bc26a	0.0047534006
88	0xbb4cefc2	-0.0031270836
89	0xbb56681f	-0.003271587
90	0x3b93435a	0.004494113
91	0xbc15e863	-0.009149644
92	0xbaf8b5f6	-0.0018975127
93	0xba856f73	-0.0010180309
94	0xbba55944	-0.0050460417
95	0x3b307bf9	0.0026929362
96	0xba8e1355	-0.0010839502
97	0x3aabb85a	0.0013101206
98	0x398202a5	0.00024797503
99	0x3b0af68c	0.0021204082
100	0x3f504498	0.81354666
101	0x3a693be3	0.00088971684
102	0x3a7ab5d4	0.00095638377
103	0xbad4842a	-0.0016213704
104	0x3bf9d572	0.0076243216
105	0x3e31db78	0.17368877
106	0x3c97007b	0.018432846
107	0xbb101d92	-0.0021990282
108	0x3bca48d0	0.0061732307
109	0xbc24ee38	-0.010066561
110	0x3eb8f259	0.36122397
111	0xbabc57ed	-0.0014369466
112	0x3ab0e440	0.0013495758
113	0x3a7a528e	0.0009549045
114	0xbba4c95d	-0.005028887
115	0xbc849fdf	-0.016189514
116	0x3b0796c9	0.002068924
117	0x3a418553	0.00073822326
118	0xbb172156	-0.0023060641
119	0x3e6bd629	0.23030914
120	0x3b45328b	0.003008994
121	0x3e47234a	0.19447055
122	0xbcbb6c2c	-0.022878729
123	0x38d3a6a1	0.00010092301
124	0xbb735950	-0.0037132092
125	0xbb260084	-0.0025329897
126	0xbaae36ba	-0.0013291456
127	0x3b1dead8	0.0024096277
128	0xbbd905af	-0.006622992
129	0xbb09a71a	-0.0021004141
130	0xbb9fc0e9	-0.0048752916
131	0xb9d2646e	-0.00040129147
132	0xba6ec15a	-0.0009107791
133	0x3a5fd3f8	0.00085383607
134	0x3b78d526	0.0037968843
135	0x3dc89085	0.0979319
136	0x3b42c417	0.002971893
137	0x385a67bd	5.2071864e-05
138	0x3f0ccf34	0.55003667
139	0x3e219fd6	0.15783629
140	0xbb58e4c3	-0.0033095337
141	0x3e0b6056	0.13610968
142	0x3afba71d	0.0019199584
143	0x39b2ace7	0.00034079628
144	0x3b9d78e2	0.00480567
145	0x39ff54d7	0.000487006
146	0x3b273045	0.0025510949
147	0x3abd4617	0.0014440444
148	0x3a069ed8	0.0005135364
149	0xbada8ca6	-0.0016673997
150	0xbb630197	-0.0034638399
151	0xbbb51fb7	-0.0055274623
152	0xbb11dbd8	-0.0022256281
153	0xbb967324	-0.0045913626
154	0x39eb1bfd	0.00044843546
155	0x39d9043e	0.00041392626
156	0xbb5b68d5	-0.0033479233
157	0x3af0c575	0.0018369394
158	0xbb594030	-0.003314983
159	0x3bb9ee6d	0.0056741745
160	0x3a8ad330	0.0010591503
161	0x3e839a09	0.25703457
162	0xba6e3c3d	-0.00090879557
163	0x3b07489c	0.0020642644
164	0xba1dac91	-0.0006014789
165	0x3a7b807c	0.0009594036
166	0xbac14ae1	-0.0014747047
167	0xbaa85992	-0.0012844077
168	0x3a3e319e	0.00072553183
169	0x3e0d0d1e	0.13774535
170	0xbada9f32	-0.0016679524
171	0xbb46b31a	-0.0030319155
172	0xbb9a12b0	-0.0047019348
173	0x3b62b105	0.0034590375
174	0x3b88f4b7	0.004179563
175	0xbaf4d9e9	-0.0018680665
176	0xbbb6c879	-0.0055780974
177	0x3b8feac5	0.0043920004
178	0x3eac5a2e	0.33662552
179	0x3b9446c1	0.004525036
180	0x3ab319c3	0.0013664294
181	0xb98939ff	-0.00026173887
182	0x3b5b0280	0.0033418238
183	0x3eace79c	0.33770454
184	0x3a0eb021	0.00054431154
185	0x3a865052	0.0010247326
186	0xbc0b15f1	-0.008489118
187	0x3bd6619c	0.0065423977
188	0xba98e606	-0.0011665232
189	0x3ab9e328	0.0014182078
190	0x3b0d1649	0.0021528176
191	0x3bd41b11	0.006472953
192	0x3b3af057	0.0028524601
193	0xb9466899	-0.00018921717
194	0xba0c66cb	-0.00053558935
195	0xbb98bb15	-0.004660974
196	0x3b066279	0.0020505472
197	0xba9fc7f7	-0.0012190331
198	0x3b82a43d	0.003986864
199	0x3b925fd9	0.0044669923
200	0xbae9c2a5	-0.0017834498
201	0x3bdc85d4	0.0067298207
202	0xb9d995a0	-0.00041500945
203	0x3b4265be	0.0029662694
204	0x3ebaabce	0.36459202
205	0x3b350bcb	0.0027625437
206	0x39ba759e	0.00035564316
207	0xbaa3bb50	-0.0012491737
208	0x3ae83916	0.0017717208
209	0xbb99aa04	-0.004689457
210	0xba29fd93	-0.0006484624
211	0x3eacfd79	0.33787134
212	0xbc13ae78	-0.009013765
213	0xbb2e950e	-0.0026639136
214	0xba32205f	-0.0006794985
215	0xbb90d3e1	-0.004419789
216	0x3a9f82d9	0.0012169733
217	0x3bfd1388	0.0077232756
218	0x3c018937	0.00790625
219	0x3ae265f0	0.0017272811
220	0x3ad191f8	0.0015988937
221	0xba1f3e5a	-0.000607466
222	0x3ebb45eb	0.3657678
223	0x3c3fab2c	0.011698525
224	0xbacf5d54	-0.0015820661
225	0x3b8d351e	0.0043093106
226	0xbb4124ae	-0.0029471326
227	0xbb41620d	-0.0029507906
228	0xbae0bbc6	-0.0017145805
229	0x3b92df8b	0.004482215
230	0x3f178599	0.5918823
231	0x3a7eeda1	0.00097247405
232	0x3a607b3f	0.0008563287
233	0x3be0e7d7	0.006863575
234	0xbb6bcc9c	-0.003598011
235	0x3996107c	0.0002862251
236	0xbaa375d5	-0.001247103
237	0xbb768d2d	-0.0037620768
238	0xba51a3ae	-0.00079971075
239	0x3e4e1b8b	0.20127694
240	0xbb901ea0	-0.004398182
241	0xbba9f181	-0.00518626
242	0x3b848d23	0.004045145
243	0x398a173c	0.00026338722
244	0xbb16752b	-0.002295802
245	0x3a5f98a9	0.0008529523
246	0x3a9706ca	0.0011522409
247	0xbb4f43c9	-0.0031626096
248	0x3a8eb2d8	0.001088704
249	0x3aa0b0c8	0.0012259716
250	0xbbd036cf	-0.00635419
251	0x3c21616f	0.00984989
252	0x3a4b8384	0.0007763433
253	0x3b9521b6	0.004551138
254	0x3a28175b	0.00064121716
255	0xbb508e44	-0.0031823078

bn.bias f4 [512]
0	0x39361aeb	0.000173669
1	0x3aec1b29	0.0018013465
2	0x3a6e9f74	0.000910274
3	0xba3a4e18	-0.0007106974
4	0x3ea1b9e0	0.31587124
5	0x3b90c8fa	0.0044184895
6	0xbb5a923e	-0.0033351327
7	0xba8d5a05	-0.0010784274
8	0xbae12634	-0.0017177523
9	0xbaf30334	-0.0018540383
10	0x3b1d42b7	0.0023996064
11	0x3aad4281	0.0013218672
12	0xb9c147d9	-0.0003686536
13	0xba2045c1	-0.000611391
14	0xbad112f9	-0.0015951089
15	0xba02fb1f	-0.00049965264
16	0x3ba1861c	0.004929317
17	0x3abe1219	0.0014501243
18	0xbb7421fe	-0.0037251706
19	0xbaa524dd	-0.0012599487
20	0x3921d47f	0.00015433317
21	0x3a6fbcb9	0.00091452483
22	0xbae46846	-0.0017426095
23	0xbab4ce68	-0.0013794424
24	0x3ad47090	0.0016207863
25	0xba20e478	-0.000613756
26	0xbbb6b877	-0.005576189
27	0x3b637a1e	0.0034710239
28	0xbae02f81	-0.0017104001
29	0xba969c75	-0.001149072
30	0x3a0d6463	0.0005393682
31	0xbb701365	-0.0036632654
32	0xbaa6c36e	-0.0012723038
33	0x3a3d9e17	0.0007233335
34	0x39096c29	0.00013105631
35	0xbb84c7ef	-0.0040521543
36	0x3abee1ab	0.0014563104
37	0xb87d96f3	-6.0460483e-05
38	0x39c2ffa3	0.00037193028
39	0x3dbf96d6	0.093549415
40	0xbaac19cd	-0.0013130248
41	0xbbbf97cf	-0.0058469544
42	0x3b35bc3e	0.002773061
43	0x3a774352	0.0009432334
44	0x3a70cb96	0.000918561
45	0x3b4479a6	0.0029979735
46	0xba074d9e	-0.0005161407
47	0xbc189c2d	-0.009314579
48	0xbb44b583	-0.0030015416
49	0xb8a81fc9	-8.016785e-05
50	0xbda36a61	-0.079792745
51	0xbb616d5f	-0.0034397466
52	0xb9b31126	-0.00034154317
53	0xbaae5434	-0.0013300241
54	0xbb217470	-0.0024636053
55	0x3ae53e03	0.0017489794
56	0xba3b4705	-0.00071440666
57	0xbaf2dcd6	-0.0018528949
58	0x38dd747b	0.000105597974
59	0x3a860362	0.0010224397
60	0x3a255ca2	0.0006308054
61	0xbb8dfedf	-0.0043333615
62	0xbb68afaa	-0.0035505095
63	0x3ccd616c	0.025070868
64	0x3b36e34b	0.0027906473
65	0x3a53e57a	0.0008083206
66	0x3cc988a3	0.024601286
67	0x3b2229d7	0.0024744177
68	0xbb7c9904	-0.0038543353
69	0xbb919c90	-0.0044437125
70	0xb9eb0983	-0.0004482978
71	0x3b3a1129	0.0028391576
72	0x3b1f074b	0.0024265822
73	0x3ab57126	0.0013842925
74	0x3a944d1f	0.0011314488
75	0x37b7dc53	2.1917896e-05
76	0x3d909c27	0.07061034
77	0xb98aa703	-0.00026445845
78	0xb9ab891b	-0.00032717813
79	0x3b5c6200	0.0033627748
80	0xbb1db005	-0.0024061215
81	0x3ba00950	0.0048839226
82	0x3b20ed9d	0.002455569
83	0x3afc5097	0.0019250092
84	0x3de834c9	0.11338193
85	0xb9128f6d	-0.00013977075
86	0x3b972425	0.004612463
87	0x3a654111	0.00087453524
88	0xbafa3978	-0.0019090613
89	0xbb411052	-0.002945919
90	0x39f884a8	0.00047401083
91	0xba8f1d18	-0.0010918705
92	0x3a58da4a	0.00082722737
93	0x3b3d6b5e	0.0028903107
94	0xbae8498c	-0.0017722114
95	0x3ac0488b	0.0014670057
96	0x3ac257a2	0.0014827142
97	0x3b32ad70	0.0027264021
98	0xbba59f3e	-0.0050543835
99	0x3a72f9be	0.0009268782
100	0x3db7c0ac	0.08972296
101	0xbb86ef59	-0.004117888
102	0xbb63967a	-0.0034727142
103	0x3af0b608	0.0018364796
104	0xbb102560	-0.0021994933
105	0x3b8238d2	0.0039740587
106	0xbb6185d6	-0.0034412048
107	0xb9b51bde	-0.00034543773
108	0x3b6a47a1	0.003574826
109	0xbb9c538a	-0.004770701
110	0x3df80df7	0.121120386
111	0xbb84ed5f	-0.004056617
112	0x392381ba	0.00015593218
113	0x3b097676	0.002097515
114	0xbb988d0d	-0.0046554864
115	0xbae9a9a1	-0.0017827043
116	0x3a02fecc	0.0004997074
117	0x3a8b1f50	0.001061419
118	0x3a394ae3	0.0007068349
119	0x3d4ee1b0	0.0505082
120	0x3a9b3e6a	0.0011844162
121	0x3c3d3c36	0.01155
122	0xbb43b15b	-0.002986035
123	0x3a79c60a	0.00095281063
124	0xbb2aabef	-0.0026042422
125	0x3aedb3f7	0.0018135299
126	0x3c09cec1	0.00841111
127	0x3bc127b6	0.0058946265
128	0x3a5c385a	0.0008400731
129	0x3b883d05	0.0041576647
130	0xbb167bac	-0.0022961898
131	0xbbacaebe	-0.0052698543
132	0x3a8b41d4	0.0010624477
133	0x3a568458	0.0008183173
134	0x3a427736	0.00074182765
135	0x3ca4f42d	0.020135963
136	0x3a398233	0.0007076591
137	0x3b4e3b00	0.0031468272
138	0x3ddcff62	0.10790898
139	0x3d6379b6	0.055535994
140	0xbb5afede	-0.0033416073
141	0x3db983da	0.09058352
142	0xbaf70062	-0.0018844719
143	0x3a5b0caa	0.0008356074
144	0xba197fc3	-0.0005855525
145	0x3a1e567e	0.000604011
146	0xbace6ff7	-0.0015749921
147	0xbb230d14	-0.0024879621
148	0xba4c104f	-0.00077844126
149	0xba241552	-0.00062592805
150	0xbaa26aea	-0.0012391482
151	0xb993e510	-0.0002820869
152	0x3a298fd3	0.000646827
153	0x3b51b3d7	0.0031998062
154	0xbacb38c2	-0.0015504586
155	0xbb89c1cf	-0.004204012
156	0xbaa33c32	-0.0012453853
157	0xb8ff8cf7	-0.00012185604
158	0x3badb673	0.0053012907
159	0xbaabebd1	-0.0013116543
160	0xbb194f61	-0.002339326
161	0x3de99ff5	0.114074625
162	0xbbd961c4	-0.006633969
163	0x3abde15d	0.0014486719
164	0x3b5bb44f	0.003352422
165	0xba2b2956	-0.0006529292
166	0x3a646026	0.0008711837
167	0xbb220c2d	-0.0024726496
168	0x3b50b007	0.0031843202
169	0x3d5bb9e8	0.05364409
170	0xbb1a44ba	-0.00235395
171	0x3b636b65	0.0034701463
172	0x39166ae0	0.00014344929
173	0x3b4d26d9	0.0031303673
174	0xbab19e73	-0.001355125
175	0xbb764d52	-0.0037582708
176	0xba90083d	-0.0010988783
177	0x39340a0d	0.00017169882
178	0x3d5ab202	0.053392418
179	0xba7bd86c	-0.00096071395
180	0xba42a4e4	-0.00074250833
181	0x3ab76b06	0.0013993687
182	0xbb81dede	-0.0039633354
183	0xbcf880aa	-0.03033479
184	0x3885961d	6.369895e-05
185	0xbae8e4dc	-0.0017768401
186	0xbaa6df01	-0.0012731255
187	0x39b97e11	0.00035379876
188	0x3ac3efb9	0.0014948762
189	0x388e4247	6.783433e-05
190	0xbab49012	-0.0013775846
191	0x3bb7d401	0.0056099896
192	0x3b74c908	0.003735127
193	0xbabee642	-0.0014564472
194	0xb946edee	-0.00018971387
195	0xb95f5f48	-0.00021302432
196	0xbaa0297a	-0.0012219392
197	0x3b2fd342	0.00268288
198	0x3b8ed31a	0.0043586614
199	0x38c5a550	9.424484e-05
200	0x3ab2e2ed	0.0013647951
201	0x3b63a169	0.003473366
202	0xb99e8278	-0.00030233315
203	0x3aa02148	0.001221695
204	0x3d974f41	0.07388163
205	0x3b912669	0.0044296277
206	0xb9abfa75	-0.00032802267
207	0xbb702092	-0.0036640507
208	0x3ab1ac5f	0.0013555399
209	0xbaf0f756	-0.0018384259
210	0x3af1f6a2	0.0018460343
211	0x3e1509a6	0.14554462
212	0xba90c194	-0.0011044019
213	0xbaa9ac3a	-0.0012945004
214	0xbb30b952	-0.0026965928
215	0x3b8bb956	0.004264037
216	0x3a2b2a9a	0.00065294805
217	0x39a1ace7	0.00030837135
218	0x3b8f9412	0.004381665
219	0xb9c4ecea	-0.00037560548
220	0xbadac167	-0.0016689718
221	0xbaa81b6a	-0.0012825553
222	0x3e3759cc	0.17905349
223	0x3ad987a7	0.0016596214
224	0x3b9fc823	0.004876153
225	0xb9a56a69	-0.00031550534
226	0xba93bfb1	-0.0011272338
227	0xbaa423cd	-0.0012522876
228	0xba94d3fa	-0.0011354678
229	0x3b05d961	0.0020423757
230	0x3d4f8a5a	0.05066905
231	0xb96503e1	-0.00021840587
232	0x3aea2ee6	0.001786676
233	0xbb13e564	-0.0022567147
234	0xbb2c1215	-0.0026255895
235	0x3abaeb16	0.0014260735
236	0x3b5d6e19	0.0033787547
237	0x3a4e94ba	0.00078804384
238	0xbb5ec932	-0.0033994433
239	0x3cf39828	0.02973564
240	0xbadb0f17	-0.0016712871
241	0xbb04a188	-0.0020237882
242	0xbb5746de	-0.0032848637
243	0x38e0d423	0.00010720666
244	0xba8f007e	-0.0010910181
245	0xbb736faa	-0.0037145414
246	0x37bdb714	2.2615808e-05
247	0xba7cc397	-0.0009642182
248	0xbb28323e	-0.0025664712
249	0xb8efcb39	-0.00011434261
250	0xb9f0d2f1	-0.0004593353
251	0x3a73abfc	0.0009295342
252	0x3a345d52	0.0006880361
253	0x3a0de22d	0.0005412426
254	0x3ba85eee	0.0051382696
255	0xbc01d42b	-0.00792412

bn.running_mean f4 [512]
0	0x3e797f8f	0.24365066
1	0x3ec4be9a	0.38426667
2	0x3ea430aa	0.32068378
3	0x3f1f3ac2	0.6219903
4	0x401cbf47	2.4491746
5	0x3f3e6d57	0.7438559
6	0x3f832287	1.0244912
7	0x3ef1e9c1	0.47248653
8	0x3e1f2781	0.15542413
9	0x3f52ca4a	0.8233992
10	0x3ebaa96d	0.36457387
11	0x3e807559	0.2508953
12	0x3e8f70b6	0.2801568
13	0x3e6140f9	0.21997441
14	0x3e80fa4f	0.2519097
15	0x3f500348	0.81255007
16	0x3f94835f	1.1602591
17	0x3f4ded22	0.8043996
18	0x3ea47136	0.32117623
19	0x3e841f04	0.25804913
20	0x3e47a617	0.19496952
21	0x3dfd4cd1	0.12368167
22	0x3f0cff82	0.55077374
23	0x3f3e8911	0.74427897
24	0x3e64f7d4	0.22360164
25	0x3f0cfaab	0.5506999
26	0x3e1e3e85	0.15453537
27	0x3e22f886	0.15915117
28	0x3fca4a8a	1.5803998
29	0x3f214618	0.6299758
30	0x3e42adef	0.19011663
31	0x3eacfd3e	0.33786958
32	0x3ed042e5	0.40676036
33	0x3dec9f37	0.11553805
34	0x3dd66ee5	0.1047037
35	0x3ea5e7eb	0.32403502
36	0x3ebd6701	0.36992648
37	0x3e99375b	0.29925045
38	0x3ea97518	0.33097148
39	0x3e559000	0.20855713
40	0x3fc6b84c	1.5524993
41	0x3ea43115	0.32068697
42	0x3e37830c	0.17921084
43	0x3e7e1dd4	0.24816066
44	0x3e6360c6	0.22204885
45	0x3e5eaf99	0.21746673
46	0x3f031611	0.51205546
47	0x3fbffdf3	1.4999374
48	0x3e53d6d5	0.2068742
49	0x3e1a41d3	0.15064172
50	0x402705db	2.6097324
51	0x3e2a7154	0.16644794
52	0x3e8bc2b2	0.27296978
53	0x3ee87014	0.4539801
54	0x3f5c76e3	0.86118907
55	0x3e98f5dc	0.29875076
56	0x3ea1a4e8	0.31571126
57	0x3e719d0b	0.23595063
58	0x3eefb5ac	0.46818292
59	0x3e5647c9	0.20925821
60	0x3ddfcb45	0.109274425
61	0x3e95a5ee	0.29228157
62	0x3e26af03	0.16277699
63	0x3fa323a2	1.2745249
64	0x3ea7f051	0.32800534
65	0x3ecad9e0	0.3961935
66	0x3fb714c6	1.4303215
67	0x3dfc2efe	0.123136505
68	0x3edb5c49	0.42843845
69	0x3faf7116	1.3706386
70	0x3e869afb	0.26290116
71	0x3f0e4162	0.55568516
72	0x3ebf000d	0.37304726
73	0x3f0e424f	0.5556993
74	0x3eec7f63	0.46190938
75	0x3f0575d9	0.52132946
76	0x3f0b09cc	0.54311824
77	0x3e34aa34	0.17643052
78	0x3e53d0c5	0.20685108
79	0x3ec21d4f	0.37912986
80	0x3f23c4ec	0.63972354
81	0x3ed65e8a	0.41869003
82	0x3f305dce	0.68893135
83	0x3e789b2f	0.24277948
84	0x3e26f02a	0.16302553
85	0x3e1f5386	0.15559205
86	0x3f52bfca	0.82323897
87	0x3e6ae4ee	0.22938892
88	0x3e248c4b	0.16069143
89	0x3f4fad28	0.8112359
90	0x3f762ea7	0.96164936
91	0x3ea8525b	0.32875332
92	0x3e107861	0.14108421
93	0x3e9e7162	0.3094588
94	0x3eb71aec	0.35762727
95	0x3f02d933	0.5111267
96	0x3e1dec50	0.15422177
97	0x3e9af675	0.30266157
98	0x3f136e20	0.5758991
99	0x3de4e7e0	0.11177039
100	0x409b065a	4.8445253
101	0x3e910857	0.28326675
102	0x3ef8a13c	0.48560512
103	0x3facecb0	1.3509731
104	0x3f5a8397	0.8535704
105	0x3efbecba	0.49204046
106	0x3e5bbdce	0.21459123
107	0x3e9dabd7	0.30795166
108	0x3e8a48d3	0.27008685
109	0x3f00335f	0.50078386
110	0x3e9a44cb	0.3013061
111	0x3eeeb2ae	0.46620697
112	0x3e0e06be	0.1386976
113	0x3f2e20b7	0.6801867
114	0x3eac4ce7	0.33652422
115	0x3f1b1996	0.60585916
116	0x3f1291c9	0.572537
117	0x3db54efb	0.08852955
118	0x3e318506	0.173359
119	0x3e190a9e	0.14945456
120	0x3e1d440b	0.15357988
121	0x3f68c026	0.90918195
122	0x3eaa5316	0.33266515
123	0x3d345a02	0.04403115
124	0x3f538f2a	0.82640326
125	0x3f52c1c5	0.8232692
126	0x3f892709	1.0715038
127	0x3d8cf67e	0.06882952
128	0x3f180a65	0.5939086
129	0x3e892276	0.26784104
130	0x3e61a969	0.22037281
131	0x3e55abe2	0.2086635
132	0x3f5f1690	0.871438
133	0x3dc7087d	0.09718416
134	0x3eac541d	0.33657923
135	0x3fcd7235	1.6050478
136	0x3e041ada	0.12900868
137	0x3e8073dc	0.25088394
138	0x3f76c2f7	0.9639124
139	0x3ea421ff	0.32057187
140	0x3e93c096	0.2885787
141	0x3fbc605e	1.4716909
142	0x3f4cbf62	0.79979527
143	0x3f47098c	0.7774894
144	0x3dd81aef	0.10552012
145	0x3f33aa43	0.70181674
146	0x3ea07c4b	0.31344828
147	0x3f0fbd02	0.5614778
148	0x3e846446	0.25857753
149	0x3f12f8af	0.5741071
150	0x3edcf263	0.43153676
151	0x3f60bf72	0.8779212
152	0x3e563e62	0.20922235
153	0x3f7fad47	0.99873775
154	0x3e3683fa	0.17823783
155	0x3f462454	0.7739918
156	0x3d975dce	0.07390939
157	0x3f8d7243	1.1050495
158	0x3ec85448	0.39126801
159	0x3f20f376	0.6287149
160	0x3e3ce505	0.18446739
161	0x3f85bf01	1.0448915
162	0x3f68638f	0.90776914
163	0x3ebc2ed5	0.3675448
164	0x3e9e915f	0.30970284
165	0x3debd6ac	0.11515555
166	0x3eb5e19c	0.3552369
167	0x3f27aeef	0.655013
168	0x3ea55994	0.32294905
169	0x3f0905b5	0.53524333
170	0x3e80f696	0.2518813
171	0x3f119b50	0.56877613
172	0x3e9231e1	0.2855368
173	0x3f032190	0.5122309
174	0x3e833648	0.2562735
175	0x3f976456	1.1827495
176	0x3ee2f298	0.4432571
177	0x3f1e7a2d	0.61905175
178	0x3d82ef42	0.06393291
179	0x3ece2e9b	0.40269932
180	0x3e4a8602	0.19777682
181	0x3f023a46	0.5087017
182	0x3e8901f0	0.2675929
183	0x3f9a5837	1.2058171
184	0x3d9c4513	0.07630362
185	0x3d8c835d	0.06860993
186	0x3eeded1c	0.46469963
187	0x3fc70558	1.5548506
188	0x3eaa1815	0.33221498
189	0x3f200ac9	0.62516457
190	0x3f9e6d63	1.2377132
191	0x3f9355a0	1.1510506
192	0x3ea29348	0.31752992
193	0x3eb95e2a	0.36204654
194	0x3f157fc6	0.5839809
195	0x3f05340e	0.52032554
196	0x3e8e7d71	0.2783008
197	0x3e576cc4	0.21037585
198	0x3f059db5	0.52193767
199	0x3ee801fe	0.4531402
200	0x3e2200d9	0.15820636
201	0x3f0f26e5	0.55918723
202	0x3d755eff	0.05990505
203	0x3ed998de	0.4249944
204	0x3e34e7de	0.17666575
205	0x3eee4107	0.46533987
206	0x3e8e9ac2	0.27852446
207	0x3ece0071	0.40234712
208	0x3de6a9ff	0.11262893
209	0x3eed0546	0.46293086
210	0x3f348285	0.70511657
211	0x3fc4ff63	1.5390438
212	0x3f20ca03	0.62808245
213	0x3e99e835	0.30059972
214	0x3f3250a4	0.696543
215	0x3ed5609a	0.41675264
216	0x3df5094e	0.11964665
217	0x3f019860	0.5062313
218	0x3e994959	0.29938772
219	0x3e8c7297	0.27431175
220	0x3e46ebf8	0.19425952
221	0x3ea16f8c	0.31530416
222	0x3ff51127	1.914586
223	0x3f5cd1ae	0.86257446
224	0x3fa47e30	1.2851009
225	0x3f0ab36f	0.54180044
226	0x3fbe9802	1.4890139
227	0x3e61d03e	0.22052094
228	0x3e3b3ce4	0.18284947
229	0x3eefd3c1	0.46841243
230	0x3fba2dd0	1.4545231
231	0x3e5ad3d3	0.21369867
232	0x3f22ee39	0.6364475
233	0x3f0154ad	0.5051983
234	0x3f2704ce	0.65241706
235	0x3f94a314	1.1612267
236	0x3f1a81ff	0.6035461
237	0x3f83b1f5	1.0288683
238	0x3d7cb3a9	0.061694775
239	0x3f2ad4ce	0.66730964
240	0x3e6b2edc	0.22967094
241	0x3fc3262d	1.5246025
242	0x3f0d771c	0.5525987
243	0x3ea9ee89	0.331898
244	0x3ded0e6e	0.11575018
245	0x3f6a57d2	0.91540253
246	0x3e12566a	0.14290777
247	0x3fa23120	1.2671242
248	0x3f75984f	0.9593553
249	0x3f553815	0.832887
250	0x3e78222a	0.24231783
251	0x3f70d520	0.940752
252	0x3e2d10c6	0.1690093
253	0x3f05e295	0.5229886
254	0x3f2452d9	0.64188915
255	0x3f4e72af	0.80643743

bn.running_var f4 [512]
0	0x3dd8caf3	0.105855845
1	0x3eca420d	0.39503518
2	0x3eaffce2	0.34372622
3	0x3ee3a047	0.4445822
4	0x40e629b2	7.1925898
5	0x3f7ed506	0.995438
6	0x3fb349d2	1.4006903
7	0x3e7dbc64	0.24778897
8	0x3d67b76e	0.056571417
9	0x3f8e6310	1.1123981
10	0x3e53d5d9	0.20687045
11	0x3e3bce20	0.18340349
12	0x3da427a1	0.08015371
13	0x3e172ae3	0.14762454
14	0x3e5ba1af	0.21448396
15	0x3f59f58c	0.851403
16	0x3fcce6dd	1.6007954
17	0x3f40536f	0.7512731
18	0x3e853607	0.26017782
19	0x3e97ad65	0.29624477
20	0x3dee8fbe	0.116485104
21	0x3d297b82	0.04137755
22	0x3f8273ad	1.0191551
23	0x3f85670d	1.0422074
24	0x3d79bfd9	0.060973976
25	0x3ed6cf72	0.41955143
26	0x3dedeb17	0.116171055
27	0x3dda1927	0.10649329
28	0x403637d7	2.8471582
29	0x3f81e944	1.0149312
30	0x3dffa2e4	0.12482241
31	0x3e0acd00	0.13554764
32	0x3f253d76	0.64546907
33	0x3d666280	0.05624628
34	0x3d96f129	0.073702164
35	0x3e84cdf9	0.25938395
36	0x3ed71ac5	0.4201261
37	0x3ea4b47d	0.32168952
38	0x3eb75d71	0.35813478
39	0x3f0583ef	0.5215444
40	0x3ffe7af7	1.9881276
41	0x3ea22785	0.31670776
42	0x3e1a4498	0.15065229
43	0x3e60a434	0.21937639
44	0x3e111872	0.14169481
45	0x3e461a56	0.19345984
46	0x3f0a1b43	0.5394785
47	0x401f7705	2.4916394
48	0x3e150e58	0.14556253
49	0x3d79249a	0.06082592
50	0x41169d7e	9.41345
51	0x3e6ce101	0.23132707
52	0x3dc0c3d8	0.09412354
53	0x3e5fdfba	0.21862689
54	0x40090e7a	2.1415086
55	0x3e8206ff	0.25395963
56	0x3f0bbdbf	0.54586405
57	0x3e5a1a83	0.21299176
58	0x3eb0fb08	0.34566522
59	0x3de6d6a2	0.11271407
60	0x3d13f8b9	0.036125872
61	0x3e997961	0.29975417
62	0x3db00998	0.0859558
63	0x4097daa9	4.745442
64	0x3e8d1511	0.27555135
65	0x3ef7d13b	0.48401818
66	0x404aa44b	3.1662776
67	0x3db33a51	0.08751357
68	0x3ed3f842	0.41400343
69	0x4010cb24	2.2623987
70	0x3ed224b5	0.4104363
71	0x3f19252e	0.59822357
72	0x3eea3c3f	0.4574909
73	0x3f60fb00	0.87882996
74	0x3ebc9d75	0.3683888
75	0x3f02d301	0.51103216
76	0x3fc3a4b8	1.5284643
77	0x3dee6221	0.1163981
78	0x3e2f87c0	0.17141628
79	0x3ec29943	0.38007554
80	0x3ed22222	0.41041666
81	0x3ec1631d	0.3777093
82	0x3f1a8c1a	0.6037003
83	0x3e2c24ef	0.16810964
84	0x3ed99a6b	0.42500624
85	0x3d9e9e3b	0.07745024
86	0x3fa58d06	1.2933662
87	0x3e3c8615	0.18410523
88	0x3d84fcc8	0.06493527
89	0x3f8f3c4f	1.119028
90	0x3f86d0dc	1.0532489
91	0x3ef9bf0b	0.48778567
92	0x3d9577ef	0.07298266
93	0x3e93e343	0.28884324
94	0x3eae779c	0.3407563
95	0x3ec2a434	0.38015902
96	0x3dfd63b3	0.12372532
97	0x3e70897d	0.23489948
98	0x3f9f0b5c	1.2425342
99	0x3d678e75	0.056532342
100	0x420383a1	32.878544
101	0x3e700307	0.23438655
102	0x3f5d9e78	0.8656993
103	0x3fddff83	1.7343601
104	0x401f0ef1	2.485287
105	0x3fc0de50	1.5067844
106	0x3e920d33	0.28525695
107	0x3df093d7	0.11746948
108	0x3ea9ea03	0.3318635
109	0x3f2c8f9f	0.6740665
110	0x3f59eff5	0.8513177
111	0x3eb0ad02	0.34506994
112	0x3d9abf3c	0.07556006
113	0x3f271ec1	0.652813
114	0x3eafc2fa	0.34328443
115	0x3ebc2157	0.36744186
116	0x3f351d27	0.7074761
117	0x3d2abd0d	0.0416842
118	0x3dd3befc	0.10339162
119	0x3e995195	0.29945055
120	0x3dfa20cb	0.12213286
121	0x407dda5c	3.9664526
122	0x3f211437	0.6292147
123	0x3c158cdb	0.009127821
124	0x3f5d60e4	0.8647597
125	0x3f62426f	0.8838262
126	0x3fbc005d	1.4687611
127	0x3d4a86f2	0.0494451
128	0x3f822387	1.0167092
129	0x3e77f2ef	0.24213766
130	0x3e4f2f9d	0.20233007
131	0x3e1cd3f6	0.15315232
132	0x3f39aacd	0.72526246
133	0x3d01645f	0.031589862
134	0x3e0d195d	0.13779207
135	0x41011501	8.067628
136	0x3dc0ca38	0.0941357
137	0x3e58cea7	0.21172582
138	0x40b18130	5.54702
139	0x3ef085dd	0.4697713
140	0x3e1f6282	0.15564921
141	0x4055a2f9	3.338072
142	0x3f48ef5b	0.7849023
143	0x3f49e884	0.78870416
144	0x3d360744	0.044440523
145	0x3f857099	1.0424987
146	0x3e303f4f	0.1721165
147	0x3f50374c	0.81334376
148	0x3dbc926f	0.092076175
149	0x3f052c00	0.52020264
150	0x3eebfe9a	0.46092683
151	0x3f62418a	0.88381255
152	0x3e1d1edd	0.15343805
153	0x3fb37651	1.4020482
154	0x3d50dbda	0.050990917
155	0x3f604d56	0.87618005
156	0x3d05ec82	0.032696255
157	0x3fc05e77	1.5028828
158	0x3f059a6a	0.5218874
159	0x3f25b14f	0.64723676
160	0x3d554c24	0.052074566
161	0x40a1ced4	5.0564976
162	0x4001e2e5	2.0294735
163	0x3e9b8ffe	0.30383295
164	0x3e07b0b2	0.13250998
165	0x3d330188	0.043702632
166	0x3e98a747	0.29815122
167	0x3f2305d2	0.63680756
168	0x3eb361b4	0.3503548
169	0x3f94ece6	1.1634796
170	0x3e200548	0.15627015
171	0x3ee3fb7c	0.44527805
172	0x3e4e081f	0.20120285
173	0x3f16df83	0.589348
174	0x3ec8c711	0.39214376
175	0x3ffcf6c4	1.9762807
176	0x3ed3ac71	0.413425
177	0x3f05da6d	0.52286416
178	0x3e55aa96	0.20865855
179	0x3e594d0b	0.21220796
180	0x3e044ed3	0.12920694
181	0x3effd7de	0.4996938
182	0x3e746a94	0.23868781
183	0x409d675a	4.918866
184	0x3caef4cc	0.021356963
185	0x3d4461e5	0.047944922
186	0x3e801c15	0.25021425
187	0x402a27fe	2.658691
188	0x3e0a1a1b	0.13486521
189	0x3ef8a866	0.48565978
190	0x40047947	2.0699022
191	0x3fbf65dd	1.4952961
192	0x3e98ffcc	0.29882658
193	0x3e64c7a6	0.22341785
194	0x3eb40e4e	0.35167164
195	0x3f0c78ef	0.5487203
196	0x3e07825f	0.13233326
197	0x3e09b7f1	0.13449074
198	0x3eafe972	0.34357792
199	0x3e88e180	0.26734543
200	0x3dc20d2a	0.09475167
201	0x3f8c6863	1.0969356
202	0x3c395938	0.011312775
203	0x3ea8d34f	0.32973716
204	0x3f03a188	0.5141835
205	0x3e9fbc25	0.3119823
206	0x3e0f349a	0.1398491
207	0x3f08c1fc	0.53420997
208	0x3d5ae85f	0.053444263
209	0x3ea050f0	0.3131175
210	0x3f1510f7	0.5822901
211	0x40aa0715	5.3133645
212	0x3ecec1ac	0.40382135
213	0x3e3506ab	0.17678325
214	0x3fa8ce3f	1.3187941
215	0x3f1ed622	0.6204549
216	0x3d5c52e8	0.053790003
217	0x3e873cc8	0.2641356
218	0x3e950345	0.29104057
219	0x3d941640	0.07230806
220	0x3e16fad1	0.14744116
221	0x3e08ff46	0.13378629
222	0x410cde98	8.804344
223	0x3fa5ef6b	1.296369
224	0x40130028	2.2968845
225	0x3f1f2a29	0.62173706
226	0x402efd29	2.7342017
227	0x3de4cdb2	0.11172046
228	0x3dd2e7f7	0.1029815
229	0x3e6e3ab7	0.23264585
230	0x4078352c	3.8782454
231	0x3e154ca1	0.14580013
232	0x3ef6a1b0	0.48170233
233	0x3f413cc8	0.7548337
234	0x3eefd345	0.46840873
235	0x3fcaf2d4	1.5855355
236	0x3ef89396	0.485501
237	0x402464e4	2.5686579
238	0x3c879c49	0.016554015
239	0x3fb9c88e	1.451433
240	0x3e573719	0.21017112
241	0x407b0ea8	3.9227695
242	0x3ecaff5b	0.39647946
243	0x3dcd51ab	0.100253426
244	0x3d9e81cb	0.077396
245	0x3f7b2a5f	0.9811153
246	0x3d77497d	0.06037282
247	0x3fb71cff	1.4305724
248	0x3f900efa	1.125457
249	0x3f730b1c	0.94938827
250	0x3e729731	0.23690487
251	0x3f976f40	1.1830826
252	0x3da76fd0	0.081756234
253	0x3ec2a471	0.38016084
254	0x3fb6da70	1.4285412
255	0x3f48df17	0.7846541

fc2.weight f4 [256, 516]
0	0x3ad4cfd1	0.001623625
1	0xbc2915c2	-0.010320129
2	0x3bc3573d	0.0059613273
3	0x3b105737	0.002202464
4	0xbd82aa1b	-0.06380101
5	0x3c0f700c	0.008754741
6	0x3b5e45d7	0.003391614
7	0x3a07abcb	0.00051754405
8	0x3b52e1ad	0.003217797
9	0x3bed341b	0.0072388775
10	0xba5fe1a2	-0.0008540397
11	0x3af89702	0.0018965902
12	0xbb5ef174	-0.003401843
13	0xbaf31e36	-0.0018548432
14	0xbb577f3b	-0.0032882232
15	0xbb21481d	-0.0024609633
16	0xbbd29cdc	-0.0064273905
17	0xb9df5a29	-0.0004260105
18	0xbc4e068c	-0.012574803
19	0xbba810d0	-0.0051289573
20	0xbb7ae977	-0.0038286129
21	0x3aaf4f91	0.0013375153
22	0xbaeaf59a	-0.0017925978
23	0xbbcbd211	-0.00622011
24	0x3a45325f	0.00075224595
25	0x3bb90653	0.005646506
26	0x3aa9f129	0.0012965548
27	0x3b037f96	0.002006506
28	0x3a9b4326	0.0011845573
29	0x3c9b150b	0.018930933
30	0x3bf78cbc	0.0075546186
31	0xbb00ea31	-0.001967084
32	0xbc10d9c5	-0.008840983
33	0xba9d8d7a	-0.0012020313
34	0xbb4340eb	-0.0029793333
35	0x3bf04f0b	0.0073336414
36	0x3bac1e49	0.0052526337
37	0xb8d0eafc	-9.961982e-05
38	0x3aaa6a56	0.0013001661
39	0x3d3a2304	0.04544355
40	0x3c6b9421	0.014378578
41	0xbb51549d	-0.0031941303
42	0x3bdfac3f	0.0068259533
43	0x3959484f	0.0002072167
44	0x3b511107	0.0031901018
45	0xbb7c2e1c	-0.0038479632
46	0xb9d74249	-0.00041057382
47	0xbbd24fc8	-0.006418202
48	0xbafa568b	-0.0019099278
49	0x39352e81	0.00017278829
50	0x3d44ab6e	0.04801505
51	0xbc5c6c9e	-0.013453631
52	0xbb072749	-0.002062278
53	0xbb5c41b7	-0.0033608505
54	0x3b47151c	0.0030377572
55	0x3bacdd74	0.0052754227
56	0xbc802241	-0.015641334
57	0x3b4c00b9	0.003112836
58	0xbb455d11	-0.0030115286
59	0x3ae69429	0.0017591763
60	0x3b321e8a	0.0027178847
61	0x3b7cd8e0	0.0038581416
62	0xbb19c82a	-0.0023465254
63	0xbc77973e	-0.015111743
64	0x3b4db24e	0.0031386795
65	0x3b2b6ea7	0.0026158483
66	0x3d919d63	0.07110097
67	0x3b8a3385	0.0042175674
68	0x3be46d66	0.006971049
69	0xbb830a72	-0.003999048
70	0xbb72662b	-0.0036987166
71	0xbbae9f5a	-0.005329055
72	0x3bb1bb90	0.0054239705
73	0xbabe0cd5	-0.0014499674
74	0x3c6afadb	0.014342035
75	0x3bfbcefa	0.0076845856
76	0x3d1837da	0.03716264
77	0x3b272036	0.0025501377
78	0x3b32b2d0	0.0027267225
79	0xbacc3601	-0.0015580059
80	0xbbb26b27	-0.0054449025
81	0x3c3c01ce	0.01147504
82	0x3aa6c0af	0.0012722219
83	0xbb2854c8	-0.00256853
84	0xbcb4a146	-0.022049557
85	0x3b933511	0.00449241
86	0x3ccc16c8	0.024913207
87	0x3ba767c0	0.0051088035
88	0xba97eb54	-0.0011590519
89	0xbc42ce8a	-0.011890063
90	0x3c007b47	0.007841892
91	0xbc012f90	-0.007884875
92	0xbb6f544a	-0.0036518746
93	0x3a64d0ac	0.00087286043
94	0xbbe93bdc	-0.0071177315
95	0x3bc1961f	0.0059077884
96	0x3a341c13	0.00068706385
97	0x3be8bce8	0.0071025975
98	0x3b816ced	0.0039497525
99	0xb899c6b6	-7.332621e-05
100	0xbd760e66	-0.060072325
101	0x3b385b65	0.0028130647
102	0xbc74a25e	-0.0149312895
103	0xba63a7ba	-0.0008684356
104	0x3cc8ea2b	0.024525722
105	0xbb1861cc	-0.002325165
106	0xbcbe6579	-0.023241745
107	0x3bb8a171	0.0056344797
108	0x3bb49856	0.005511324
109	0x3ab2d782	0.0013644549
110	0xbb17a888	-0.0023141224
111	0xbbef334d	-0.0072998167
112	0xba11ad17	-0.00055571034
113	0xbbc9cd6c	-0.0061585214
114	0x3c98baca	0.018643755
115	0xba0a0248	-0.0005264622
116	0x3c1bdddb	0.009513344
117	0xba4bbde1	-0.00077721296
118	0xbb2e5d12	-0.0026605767
119	0x3d8759a4	0.066088945
120	0x3a8845df	0.00103968
121	0xbc4875df	-0.012235134
122	0xbcc4be27	-0.024016453
123	0xb5efe3da	-1.7873201e-06
124	0x3af5c3bf	0.0018750353
125	0xbb83ebb9	-0.004025903
126	0x3c4eca21	0.0126214335
127	0x3ca777c8	0.020442858
128	0x3c31d888	0.010854848
129	0x3c277c08	0.010222442
130	0xbc3aefef	-0.011409744
131	0xbc05c78d	-0.008165252
132	0x3adc2966	0.0016797006
133	0x3a477e37	0.0007610055
134	0x3b5f3153	0.00340565
135	0x3c10af8c	0.008830916
136	0x3b30e7fe	0.0026993747
137	0x3c13be41	0.009017528
138	0xbdab40d1	-0.08361972
139	0xbcb23a9c	-0.021756463
140	0xbb53ae5e	-0.0032299976
141	0xbd999b5a	-0.07500334
142	0x3aca65ce	0.0015441717
143	0xbb122dcc	-0.002230513
144	0x3b69fd5f	0.0035704
145	0x3b9b06cd	0.0047310353
146	0x3c0b7792	0.0085123945
147	0x3bcfdb07	0.0063432488
148	0xba1a491b	-0.00058855274
149	0xbb6c1afd	-0.0036026828
150	0xbae09ead	-0.0017137133
151	0x3b91f7a8	0.0044545718
152	0xbaf90fa9	-0.001900186
153	0xbb46331f	-0.0030242873
154	0x39e56cf5	0.00043759463
155	0x3c32d53d	0.010915098
156	0x3ad70735	0.0016405346
157	0xbb29f80f	-0.0025935208
158	0xbbaa7e3c	-0.0052030366
159	0xbbd78eff	-0.0065783258
160	0xba2c8785	-0.0006581473
161	0x3c4c8845	0.012483661
162	0x3ba30f18	0.0049761645
163	0xbb2c3766	-0.0026278137
164	0x3b31a83e	0.0027108337
165	0xb9a78f25	-0.00031959373
166	0xbb8720c2	-0.004123778
167	0xbc14dd58	-0.009085976
168	0x3c18b7cc	0.009321164
169	0x3b13e5fa	0.0022567497
170	0xba627692	-0.0008638884
171	0x38e92f8c	0.00011119162
172	0x3b051284	0.0020305226
173	0x3beb2fe0	0.007177338
174	0x3bb881e2	0.0056307176
175	0xbc759637	-0.014989427
176	0xbc334379	-0.01094138
177	0xbb7b5b7f	-0.0038354096
178	0xbc8497f5	-0.01618574
179	0xbb2819f4	-0.0025650235
180	0x3be089a7	0.006852347
181	0xbc05d02d	-0.008167309
182	0xbc44c688	-0.012010224
183	0x3d8046ea	0.06263526
184	0x3ac96879	0.0015366218
185	0xbbdf7ccb	-0.0068202964
186	0x3b945329	0.004526515
187	0x3a296274	0.0006461509
188	0xbab9887c	-0.0014155055
189	0xbb6f41b3	-0.0036507666
190	0x3ba77c41	0.0051112478
191	0x3b8300db	0.0039979047
192	0x3c6490ca	0.013950536
193	0xbb0a8c4c	-0.0021140752
194	0x3988aa72	0.00026066933
195	0x3b0556c6	0.002034591
196	0x3b1e193e	0.0024123932
197	0xbba48549	-0.0050207716
198	0x3b31b78d	0.0027117461
199	0x3b89bf24	0.004203694
200	0x3b7b3375	0.0038330231
201	0x3c345a34	0.011007834
202	0xbb4b271c	-0.0030998653
203	0x3c074110	0.008255258
204	0xbe4e72ed	-0.20161028
205	0xbbb29f7e	-0.005451142
206	0x3c1bc00c	0.009506237
207	0x3bc69097	0.006059717
208	0x39536787	0.00020161095
209	0x3a0496ea	0.00050578883
210	0x3b6f4e36	0.0036515123
211	0x3d050f96	0.032485567
212	0xbbb83a8f	-0.005622215
213	0x3bd8757b	0.0066058016
214	0xbc15c116	-0.009140274
215	0xbbadd0fd	-0.0053044544
216	0xbaf38d0a	-0.0018581462
217	0xbababb70	-0.0014246535
218	0x3adc99fd	0.001683056
219	0x3a925204	0.0011163359
220	0xbba28dd9	-0.004960757
221	0x3b90a7de	0.0044145426
222	0xbcf790b5	-0.030220369
223	0xbc8b09d3	-0.016972458
224	0x3c0112a4	0.007877979
225	0xbc955e1d	-0.018233353
226	0x3a943910	0.001130851
227	0xba2aaa7b	-0.0006510389
228	0xbb2b511e	-0.002614088
229	0x3a1a4c5f	0.0005886014
230	0x3e2ab781	0.16671564
231	0x3b1b1efa	0.0023669587
232	0xbb94b004	-0.0045375843
233	0xbb080dad	-0.0020760105
234	0x3a5c6ed7	0.00084088504
235	0xbb1d58cd	-0.0024009228
236	0x3c193aa9	0.009352365
237	0x3c727298	0.014797829
238	0xbbb452fa	-0.0055030556
239	0x3d03b6a1	0.03215659
240	0x3bbe1a27	0.0058014574
241	0xbc3a77e6	-0.011381125
242	0xbb5c396c	-0.0033603562
243	0x3ba2c861	0.0049677347
244	0xbaae567d	-0.0013300922
245	0x3b6808f5	0.003540573
246	0x3b6defcc	0.003630626
247	0x3c58009a	0.013183737
248	0xba38ae6e	-0.0007045035
249	0x3b37b572	0.0028031734
250	0xbc228fb3	-0.009921956
251	0xbac293a2	-0.0014845023
252	0xbb70e9ee	-0.0036760527
253	0x3b6a997c	0.003579705
254	0xbbe5112b	-0.006990572
255	0x3b62a7e2	0.003458493
