checkpoint_actor.pth (torch_old, 588487 bytes, 10 tensors)

fc1.weight f4 [512, 24]
000000 ba 31 69 bd 2b df 99 bc 72 98 6c be 70 67 95 bd
       -0.05693219 -0.018783173 -0.23105028 -0.0729512
000010 50 79 0a 3d f3 c8 22 3e fa b7 3f be 2e b2 bf bc
       0.0338071 0.15896969 -0.18722525 -0.023400392
000020 1f 8a d1 3d 41 1e fd 3c 2f 60 e7 bc 26 8e 36 3e
       0.10231423 0.030898215 -0.028244106 0.17827663
000030 5e 5b 1a 3d d8 75 55 3f 48 5d ce ba 5a 6b 2c 3e
       0.03768479 0.8338294 -0.0015744353 0.16837826
000040 c9 9a 5d b9 a0 fa 7a 3d 78 17 d5 bd 0d 1d 11 3f
       -0.00021133864 0.06127417 -0.10404867 0.5668495
000050 e4 dc 8c 3d 3f 9d cf 3f cd 08 9b bd c0 2e 0d 3f
       0.06878069 1.6219863 -0.07570038 0.5514946
000060 3c 35 3a 3e f6 88 0b be 64 37 95 bd d5 80 67 be
       0.1818437 -0.13626465 -0.072859555 -0.2260774
000070 67 6b bd 3d 91 4d 99 bf 44 28 54 bd 8a 8f 61 be
       0.09249001 -1.1976796 -0.051796213 -0.22027412
000080 b1 3f c4 3e e1 c0 1c be f4 37 a9 bc 1b 5b 98 be
       0.38329843 -0.15307952 -0.020656563 -0.29757008
000090 70 f8 14 3e 65 4b 7c bf 79 69 12 3c a3 ae 94 be
       0.14547896 -0.9855254 0.008936279 -0.29039487
0000a0 99 6a ae 3e 22 d0 14 be 46 2e e0 bd 39 09 ec 3d
       0.34065703 -0.14532521 -0.10946326 0.115251966
0000b0 4a a1 78 3e 3c 6c 2b bf 93 59 bb bd 9c 99 0e 3e
       0.24280277 -0.6696203 -0.09147944 0.13925785
0000c0 27 ed fe bc ac 1b 00 be 73 a9 6a 3c 58 dd 04 bf
       -0.031118942 -0.12510556 0.014322626 -0.51900244
0000d0 63 07 ca be dd 46 4c bf da ad 54 bd 4e 93 05 bf
       -0.3945876 -0.7979563 -0.05192361 -0.52177894
0000e0 f5 f6 1e 3d ef 89 67 be 34 f7 57 3d 90 d7 de be
       0.038809735 -0.22611211 0.052725986 -0.43523836
0000f0 ca 97 c4 be 57 30 60 bf b8 90 fd 3d 29 ed f5 be
       -0.38397056 -0.8757376 0.123811185 -0.480325
000100 64 ae 49 3d d7 3d b5 be 49 93 d6 3c 3d 5b 73 be
       0.049238577 -0.35398743 0.026193278 -0.23765273
000110 f1 7a a3 be 03 fd 7f bf ea 17 d8 bc 83 b7 83 be
       -0.31929734 -0.9999544 -0.02637859 -0.25725946
000120 53 8e c7 be 46 dd 86 be 2b af 3c 3d 25 36 de bc
       -0.38975772 -0.26340693 0.04606549 -0.027125427
000130 0b 91 d4 bd 87 ee 48 bf 80 04 90 3c 21 65 8d bd
       -0.10379227 -0.78488964 0.01758027 -0.069040544
000140 cf c3 f5 be 53 82 43 be d2 9c 45 be 1b 7c c9 bd
       -0.48000953 -0.19092683 -0.19298103 -0.09838124
000150 33 41 37 3e b7 3a 72 bd ea 62 e6 bd 6e 28 b5 bd
       0.17895965 -0.059138026 -0.11249335 -0.08845602
000160 70 06 30 bf 85 5a a0 be 0a 8e df bd 19 ea d7 3d
       -0.6875982 -0.3131906 -0.10915764 0.105426975
000170 4a ff fc 3e 0f bb 72 3f fb ca d3 bd a2 52 0b 3e
       0.4941352 0.9481668 -0.1034145 0.1360574
000180 f1 37 02 3f bd 4c 66 3d bb 68 7b bd 6f 00 0f 3e
       0.5086661 0.056225527 -0.061379176 0.13965009
000190 4a 75 2d 3e dd 79 f1 be 06 16 44 bc 44 a4 f2 3d
       0.16939273 -0.47163287 -0.011968141 0.118477374
0001a0 df a7 2b 3f 5f b3 82 3e b4 70 87 bd 0c 00 27 3c
       0.67053026 0.25527474 -0.06613293 0.010192882
0001b0 32 7e 83 3e 0c af de be 59 e8 58 bc 52 8b bd bc
       0.25682217 -0.43492925 -0.01323899 -0.023137722
0001c0 c7 a7 61 3e 59 0a 91 be 90 77 26 bb 2d 7d fe bd
       0.22036658 -0.28328207 -0.0025400855 -0.12426219
0001d0 70 1b d1 be 02 1a b0 bd 69 be 18 bd 7e 59 0d be
       -0.40841246 -0.085987106 -0.037290964 -0.1380367
0001e0 e8 a5 06 bf bf 9e 08 3f 22 82 74 bd 75 8b 41 3d
       -0.525969 0.5336723 -0.059694417 0.047252137
0001f0 b6 ab d6 3c bf 8d ae be 3b 20 e0 3c e5 72 bb 3d
       0.026204925 -0.3409252 0.027359119 0.09152774
000200 e7 10 ae be 35 ab 58 3f f2 f7 a0 bd 02 2f 8a 3e
       -0.3399727 0.8463624 -0.07859792 0.2698899
000210 c1 92 09 3e b2 96 86 bf c7 55 85 bd db fd 85 3e
       0.13434888 -1.0514739 -0.06510501 0.2617024
000220 01 10 c9 be b0 e1 4f 3f e0 b5 b3 bd bf 8b e4 bc
       -0.39270023 0.81203747 -0.08774924 -0.027898667
000230 93 3b 6c 3e 2b ca a5 bf 96 ac 25 bd 05 0a 56 3c
       0.23069601 -1.2952322 -0.040447794 0.013063912
000240 f3 38 e1 3e 93 6b 2c 3f c2 70 b5 bd 8c 78 07 be
       0.4398876 0.67351645 -0.088593975 -0.13229579
000250 00 29 7c be 73 55 80 be bb ea f9 bd 1f f1 0f be
       -0.24625015 -0.25065193 -0.122029744 -0.14056824
000260 e5 1a 88 3e 64 a3 1b 3f cf d2 13 3d 0d 6e ed be
       0.2658302 0.6079619 0.036089715 -0.46373025
000270 b2 c6 56 bd 77 60 4b be 28 d0 39 bc ac 52 c9 be
       -0.052435584 -0.19861017 -0.011341132 -0.39320886
000280 72 9a da 3e 43 56 0c 3f 90 0a 67 3d f6 3d 06 bf
       0.42695957 0.54819125 0.056406558 -0.52438295
000290 1d e2 36 3e 81 f2 92 be 10 45 9b 3c 20 21 08 bf
       0.17859693 -0.2870064 0.01895383 -0.53175545
0002a0 4e 38 cf 3c 62 8c c5 be 4a 50 d4 bd 20 6e 47 bf
       0.025295403 -0.38583666 -0.103668764 -0.7790241
0002b0 54 a5 33 bc 15 75 ac be dd 28 aa bd ce cc 4a bf
       -0.01096471 -0.33683077 -0.08308575 -0.7921876
0002c0 73 c1 b1 3d 92 da 0a bf 94 78 14 3e 20 83 25 bf
       0.08679476 -0.5423976 0.14499122 -0.64653206
0002d0 bf bf e6 3d d5 0c f9 be 2b 48 bd 3d b7 3e 1f bf
       0.112670414 -0.48642603 0.092422806 -0.6220507
0002e0 c5 79 2a 3e c2 e0 1e bf b1 a1 10 bd 9e 0f 5c 3c
       0.16648014 -0.62061703 -0.03531045 0.013431458
0002f0 cc 1d 9f 3e d2 2f 27 bf ee 62 28 bd 97 7d a3 3d
       0.3107742 -0.65307343 -0.04110997 0.07982939
000300 13 8b ef 3c 16 87 0b 3d c3 9f 4b be 4b 16 6e be
       0.02924112 0.034064375 -0.19885163 -0.23250692
000310 cc b5 ac 3d 60 8b 54 3f 63 40 6c be bc cd 66 be
       0.084331125 0.8302517 -0.23071437 -0.22539419
000320 2e b8 1f 3d 1f d8 5c be ee f9 d5 3b 4c 42 a2 be
       0.038994007 -0.21566819 0.006530038 -0.31691206
000330 8a 0a 97 3d ca 91 98 3f 7d 69 d3 3b 6b 59 98 be
       0.07375057 1.1919491 0.006451784 -0.2975572
000340 fa 46 57 3e 58 bc e0 bd 41 54 31 3d 1d eb e2 3e
       0.21023169 -0.10973424 0.04329324 0.44320002
000350 ab bc ad 3d 07 2b 98 3f 95 da 0d 3d 21 fa dc 3e
       0.08483251 1.1888131 0.034632284 0.43159583
000360 63 0d 30 bd 1f b4 46 3f 39 f1 cc bc 58 4d 61 be
       -0.042981517 0.7761859 -0.025017368 -0.2200216
000370 8e fa 0d 3e b1 ba 3b bf 4f 71 e9 3c 45 77 81 be
       0.1386511 -0.73331743 0.028496413 -0.25286308
000380 27 aa 25 bd a8 82 43 3f 5c 6d 0b bd 22 ea 52 3d
       -0.040445473 0.7637124 -0.03403984 0.051492818
000390 74 3d 71 bd 73 71 7b bf 76 05 bb 3b 99 53 c1 3d
       -0.058896497 -0.98219985 0.005707438 0.09439773
0003a0 df 0e 4b bd 23 3f 5f 3f 85 69 3a bd 85 4e cb 3d
       -0.04957473 0.87205714 -0.045510788 0.09927086
0003b0 bb 78 8b be d5 2d aa bf e1 9d 99 bd 92 db 11 3e
       -0.27240548 -1.3295237 -0.07500816 0.14243916
0003c0 30 97 8c be 28 d9 04 bf 68 be 90 bd 57 70 88 be
       -0.27459097 -0.51893854 -0.07067567 -0.26648208
0003d0 e6 be 1a 3d fa 34 e5 3e 63 71 34 ba 18 ea 94 be
       0.03777971 0.4476698 -0.0006883351 -0.2908485
0003e0 3f 5f 4e 3d db b1 d3 be 7e 14 46 bd 69 76 c6 3d
       0.050383803 -0.4134663 -0.048359387 0.09690554
0003f0 fc 8c da 3d 8b 2d 4c 3f cd db d3 bc 90 54 bf 3d
       0.10671422 0.79756993 -0.025861645 0.09342301

fc1.bias f4 [512]
000000 64 e9 1b bf dc 36 1c bf 42 ec bd be 43 39 52 3e
       -0.60903 -0.6102121 -0.37094313 0.20529656
000010 3c 1f 87 be 33 9b 11 be 4f d0 d9 bd fd 0c fb be
       -0.26391017 -0.1421936 -0.10635435 -0.49033347
000020 7d 03 e8 3d 64 ff c2 be b3 08 21 be 10 1b 13 bf
       0.1132879 -0.38085473 -0.15725975 -0.5746317
000030 7f b5 a2 be 1e 7f 4f be c9 73 18 bf c6 0f 34 bf
       -0.31779096 -0.20263335 -0.59551674 -0.7033657
000040 6a 03 54 bf 1c 6f 06 bf d9 8e ad be 27 b7 00 bf
       -0.8281771 -0.5251329 -0.33898047 -0.5027947
000050 0e 6b 2d bd 99 02 ef be 7d 8b 31 3d a7 d6 df bd
       -0.042338423 -0.4668167 0.043345917 -0.109296136
000060 33 ed ae bd 74 c9 84 be b2 92 30 bf 14 a0 3f 3c
       -0.08541336 -0.25934947 -0.6897384 0.01169588
000070 27 7f 8f be 93 2e b8 be 39 8e e0 be c0 86 de 3b
       -0.28026697 -0.35973033 -0.43858507 0.006790966
000080 31 e2 91 3e 10 ee f2 bd 65 d7 5b be b7 da ec be
       0.28492883 -0.11861813 -0.21468885 -0.46260616
000090 eb 11 4e be a5 f5 9c be b4 da ce be 0c 19 c4 bc
       -0.20124023 -0.30656162 -0.40401232 -0.023937725
0000a0 fb 1d ed be a7 f5 b1 be 31 96 16 bf db 5d 83 bf
       -0.46311936 -0.3475773 -0.58822924 -1.0263017
0000b0 5a 7a 1f bf 71 dc 70 be 6a b8 0e be f1 7d 23 bf
       -0.6229607 -0.23521592 -0.13937536 -0.63864046
0000c0 06 87 98 bd 99 0a 12 bf af 82 1a 3c 03 6a 84 be
       -0.07447629 -0.5704742 0.009430571 -0.2586213
0000d0 b4 e4 b8 be 0f ca 3b bf 82 76 ac be 14 68 2b bf
       -0.36111987 -0.7335519 -0.33684164 -0.66955686
0000e0 dd ae 07 bf de 7a 01 bf bd 97 af be 61 da dd be
       -0.53001195 -0.50578105 -0.34295455 -0.43330672
0000f0 3d e4 8f be d5 17 a7 be c5 e0 d1 be 0c 2e 1c bf
       -0.2810382 -0.3263537 -0.40991798 -0.6100776
000100 dc d8 13 bf 74 51 d8 be 1c ae 49 be 6d 07 11 bf
       -0.57752776 -0.42249644 -0.19695324 -0.56651956
000110 c2 37 b3 3e f2 57 db be fd 5c ab bd 8c 58 a4 3e
       0.35003477 -0.42840534 -0.083673455 0.32098806
000120 64 6d 90 be 14 d9 a0 bd 1b 0f 27 bf 46 f5 ff be
       -0.28208458 -0.07853904 -0.65257424 -0.49991816
000130 fa 45 5e be 81 ef ce bb cd e8 02 bf 4a de 1f bf
       -0.21706381 -0.006315172 -0.51136476 -0.6244856
000140 ac 39 01 bf 8e 77 ae be 52 c7 c3 be c1 ed 20 bf
       -0.50478625 -0.34075588 -0.38238007 -0.62862784
000150 60 68 64 be 10 73 d9 be 60 2e 38 be 69 96 ab bd
       -0.22305441 -0.42470598 -0.1798644 -0.08378298
000160 50 34 c4 be 00 a7 22 bf 3b 2b 82 3e 7c 8c 93 bd
       -0.3832116 -0.6353607 0.25423607 -0.0720453
000170 94 39 16 bf 23 1f 81 be c0 4d 35 bf b7 f3 59 3d
       -0.5868161 -0.25219068 -0.7082176 0.05321094
000180 c6 c7 9f be 29 ca e6 3d c8 cd c5 be 6d 32 8a be
       -0.31207103 0.11269028 -0.3863356 -0.26991597
000190 fa 2f 62 bf 68 ad 05 3f 5a b2 a3 be 42 c2 1b be
       -0.88354456 0.5221772 -0.3197201 -0.15210822
0001a0 a3 e3 38 bf de ec c8 be d0 dd 55 be 10 e2 c0 be
       -0.72222346 -0.39243215 -0.20885396 -0.37672472
0001b0 9a cb 83 be 54 66 14 bf 9c 64 4a be 71 a6 4b be
       -0.25741273 -0.5796864 -0.19764942 -0.19887711
0001c0 b7 f6 c5 be 0e 18 05 bf 87 8d ff bd ba 5c 13 bf
       -0.3866479 -0.5198983 -0.12478166 -0.57563365
0001d0 70 08 2f bf 71 71 30 be fc 17 c5 be 99 2d ff bd
       -0.6837225 -0.17230774 -0.3849486 -0.12459869
0001e0 3f 8b 22 bf f2 37 00 be 75 16 1f bf d6 67 e0 be
       -0.6349372 -0.12521341 -0.6214364 -0.4382922
0001f0 03 af 0e bd 92 5e 58 3e 7a d6 19 bd f5 b3 ca be
       -0.034834873 0.21129826 -0.037558056 -0.3959042
000200 34 a4 43 bf 11 7d 6c be 09 4e e8 be 34 56 f1 be
       -0.7642243 -0.23094584 -0.45372036 -0.4713608
000210 98 8c aa be 05 c9 61 be 21 fe 5e bf 8c 26 08 be
       -0.3331039 -0.22049339 -0.8710652 -0.13295954
000220 aa f7 e0 bd 2e 91 f0 be ac f8 69 be 9f 69 f4 be
       -0.10984738 -0.46985763 -0.22848767 -0.47736832
000230 00 19 13 bf 42 46 18 bf e7 e1 48 3e d0 66 95 be
       -0.5746002 -0.59482205 0.19617425 -0.29180002
000240 78 30 c7 bd 9a 6d 4e be f6 a3 c4 be 8b 57 89 3d
       -0.097260416 -0.20158997 -0.38406342 0.067061506
000250 08 b0 a7 be 28 51 48 be c0 c9 35 3d 0d 3c f2 bd
       -0.3275149 -0.19562209 0.044381857 -0.1182786
000260 4c ee ff be 9a 7d 12 bf 85 0c 99 be c5 32 a4 be
       -0.49986494 -0.572229 -0.29892364 -0.32069984
000270 6d 5f ac be c8 1a 2c bf 27 99 ac be 2e 13 51 be
       -0.33666554 -0.67228365 -0.33710596 -0.20417473
000280 52 0b 8e be 07 46 08 bf 0c 7c c7 be 01 24 fb be
       -0.27743012 -0.53231853 -0.38961828 -0.49050906
000290 6a a3 c0 be 2d 40 03 be 37 9b f6 be 7b 1e 75 3e
       -0.37624675 -0.1281745 -0.48165295 0.23937409
0002a0 c4 e3 ad be b0 53 2b be 44 01 08 bc 1d 6c 1c bf
       -0.33962834 -0.16731143 -0.008301083 -0.6110247
0002b0 9b 8a 0d bf 9b bd c9 be f0 b5 5a bf 15 5b d1 bb
       -0.5528962 -0.3940247 -0.85433865 -0.0063890317
0002c0 be 07 3e be fe f1 bd bd 83 c2 ef bd f0 39 56 3e
       -0.18557641 -0.09274672 -0.11707022 0.20920539
0002d0 cb 85 f4 be e7 7e 35 bf f4 46 00 bf fd 81 fe be
       -0.47758326 -0.7089676 -0.50108266 -0.49708548
0002e0 1d fd 11 be 50 55 3f bf 61 fe 0e 3f 2c 47 26 bf
       -0.14256711 -0.7473955 0.558569 -0.6495235
0002f0 ba ae 5d bd 1a 3b 48 3c ca dd 70 3d e2 d0 6f 3d
       -0.05412171 0.012221122 0.058805265 0.058548816
000300 70 b4 fb be 60 9d f5 be 6e 69 c2 be 15 81 07 bf
       -0.491611 -0.4797163 -0.3797106 -0.5293134
000310 de c2 1d 3e 9b ba ec bd 65 86 a2 be 16 fb 55 be
       0.15406367 -0.1155903 -0.3174316 -0.20896563
000320 48 d4 8d be 0a 10 d4 bd c2 be 26 3e bc 99 0c be
       -0.2770102 -0.10354622 0.16283706 -0.1373052
000330 19 b9 27 bc 13 ee 13 bf 9a 72 88 bd 19 eb ce bd
       -0.010237002 -0.5778515 -0.066624835 -0.10103435
000340 38 20 d9 be bf c8 a9 3d 56 51 d7 be 02 0e 5f bf
       -0.42407393 0.082902424 -0.42054242 -0.8713075
000350 d7 62 d5 be 21 51 e8 be ab 6b bf be 58 ad 90 3d
       -0.4167697 -0.45374396 -0.37386832 0.07064313
000360 c0 e7 47 bf 39 19 41 bd 8d e3 11 be d6 f6 25 bf
       -0.78088 -0.047143195 -0.1424696 -0.64829767
000370 d0 61 13 be 3f 4c 90 be 4a ed 01 be 7b f7 04 bf
       -0.14392781 -0.2818317 -0.12688175 -0.51940125
000380 ca 39 1e bf f2 12 f3 be ee 33 5b bf 70 82 d4 bd
       -0.6180693 -0.47475392 -0.85626113 -0.103764415
000390 1e c7 d3 be 2e 20 20 bf 52 a0 0a be 88 bd 57 be
       -0.41362852 -0.625491 -0.1353772 -0.21068394
0003a0 b2 1b 95 be 05 2f fc be 57 52 00 bf 69 2c d7 3e
       -0.29122692 -0.49254623 -0.5012564 0.4202607
0003b0 05 21 f2 be 0f 09 48 bf dd 47 cb be 70 a1 76 bf
       -0.47290817 -0.7813882 -0.39703265 -0.96340084
0003c0 c2 de df bd 68 04 a1 be be 07 13 bf 1d 32 5c be
       -0.109311596 -0.31448674 -0.5743369 -0.21503492
0003d0 8d 57 ac be c4 b0 c1 bd dd 66 b6 be 7f 5d c4 be
       -0.33660546 -0.094575435 -0.35625353 -0.38352582
0003e0 55 c6 28 bf a2 88 00 bf f5 5a 38 bb 8e c6 95 be
       -0.6592763 -0.50208485 -0.0028130386 -0.29253048
0003f0 13 6b c6 3e 6c df 0b bf fb c8 37 bf a0 66 0d be
       0.38753566 -0.5463779 -0.71791047 -0.1380868

bn.weight f4 [512]
000000 e9 fa 30 3f de 63 34 be 18 95 b1 3e e9 4d 1a 3e
       0.6913286 -0.17616221 0.34684062 0.15068783
000010 2d 3b c9 3e 47 30 1d 3f 07 8e d1 3b 20 92 0f 3f
       0.3930296 0.6140179 0.006395105 0.56082344
000020 98 dc 0c bf 28 a8 34 3f a1 0c 02 3f 7f 71 08 3f
       -0.550241 0.70569086 0.5080052 0.5329818
000030 e6 d7 34 3f 8b 19 a2 3b c7 3f 50 3e 67 20 30 3f
       0.70641935 0.0049468926 0.20336829 0.6879944
000040 66 94 e4 3e d2 4c e2 3e 75 6e 49 3e c2 59 6e 3e
       0.4464447 0.44199234 0.19671042 0.23276427
000050 45 ba 9e 3f 5e 71 20 3f 6a a0 b9 be eb 38 fe 3e
       1.2400595 0.62672985 -0.362552 0.496528
000060 80 c7 48 3f 2c 3c 4d ba 08 92 06 3f 26 d9 67 3f
       0.7842941 -0.00078290957 0.52566576 0.9056572
000070 f1 f5 99 bd 3e e4 1b bf 0a 18 0d 3f 99 73 2d bd
       -0.07517613 -0.60895145 0.55114806 -0.04234657
000080 24 c7 db 3e 27 81 92 3f 24 f7 07 3f de 61 e1 3e
       0.4292537 1.1445664 0.5311148 0.4401998
000090 5c e5 ef 3e 36 30 2b 3e c1 33 e7 ba 9b 6b f1 3e
       0.46854675 0.1671761 -0.0017639325 0.4715241
0000a0 2e 7b 77 3f 37 85 97 3e 0b 82 d1 be 2d 02 82 3e
       0.9667233 0.29593822 -0.40919527 0.25392285
0000b0 a1 03 49 3f 9c 97 05 3f 1e 06 98 3f 43 ce 15 be
       0.7852116 0.5218446 1.1876867 -0.14629464
0000c0 91 2c 88 3e fc 5f 3b 3f 07 a7 38 3f 44 42 df 3e
       0.265965 0.73193336 0.72129864 0.43605244
0000d0 fc bd 09 3e 5d 6a ce 3e d4 eb bf 3d 1a 2d eb 3e
       0.1345138 0.40315524 0.093711525 0.45932847
0000e0 07 02 35 3f 40 ab 05 3f 85 78 2c 3f 1d e5 44 be
       0.7070622 0.5221443 0.673714 -0.19228025
0000f0 d9 8a 9f 3e d4 b5 3c 3f 60 48 54 3f c2 38 ec 3e
       0.3116062 0.7371495 0.82922935 0.46137053
000100 96 ac 26 bb 51 4b 4e 3f 90 30 c6 3b 64 2c 54 3e
       -0.002543246 0.80583674 0.0060482696 0.20720059
000110 27 29 82 bd 1f 37 05 3f f1 d4 dd 3e 0a be dd 3e
       -0.063555054 0.52037233 0.43326524 0.4330905
000120 94 dd 12 3f b4 68 d6 3e 65 5e 3e 3f d6 21 b1 3e
       0.5736935 0.41876757 0.74362785 0.34596127
000130 4b 0f 92 3f 01 e0 ca bb 34 6f e0 3e a5 8c 35 be
       1.1410917 -0.006191254 0.4383484 -0.17729433
000140 e5 4f 45 3e 58 a4 e5 3e 2f aa 64 3f 30 a5 2a 3f
       0.19268759 0.44851947 0.8932218 0.66658306
000150 f0 ab 2c 3f 13 50 21 3f 1b cf 96 3e 9f 14 0b be
       0.67449856 0.6301281 0.29454884 -0.13582085
000160 80 01 83 bb f8 1e 36 3f ca 07 98 bc ec 17 ac 3e
       -0.0039979815 0.71141005 -0.018558402 0.33612
000170 05 07 65 3d 26 c7 af 3e e1 ad 0e 3f a9 eb 9c 3f
       0.055914897 0.34331626 0.5573407 1.2259418
000180 c8 91 a3 be c9 0a fe 3f 48 88 db 3e a3 32 20 be
       -0.3194716 1.9847041 0.42877412 -0.15644316
000190 a0 16 0f 3f 39 6f 72 3e 51 08 01 3f 56 1f 87 bd
       0.558939 0.2367524 0.50403315 -0.06597774
0001a0 1e bd 76 3f 16 5e 82 3f 8d 5f 59 3f 70 0e bf 3e
       0.9638232 1.0184963 0.84911424 0.37315702
0001b0 db fa da 3e de 4b 15 3f 4e 23 05 3f f7 e7 7d 3f
       0.42769513 0.5831889 0.52006996 0.99182075
0001c0 cf aa a5 3f b2 10 2f be 5a 98 b6 3e 75 f9 d8 3e
       1.2942752 -0.17096213 0.3566311 0.4237782
0001d0 a0 ed 07 3f 54 6e 87 3f 78 74 e6 3e c9 3a 21 3f
       0.5309696 1.0580544 0.45010734 0.62980324
0001e0 24 83 ef 3e 14 13 26 3f a3 79 d9 3e 04 74 48 bd
       0.4677974 0.6487286 0.42475614 -0.048938766
0001f0 73 14 92 3f c3 27 6a 3e 65 c1 98 3f a0 a0 18 3f
       1.1412491 0.2286673 1.1934019 0.59620094
000200 ad 78 6f 3e c9 6c aa 3f 27 20 b3 3e ac 4d 9d ba
       0.23385878 1.3314449 0.34985468 -0.0012001297
000210 50 8b 85 be ab 5e 73 3e d2 88 60 3f 04 bf 09 3f
       -0.2608285 0.23766582 0.8770877 0.5380709
000220 ec 51 f6 3e 47 6f 77 3e e0 9f ac 3d 2f eb 0c 3f
       0.48109376 0.24163543 0.08428931 0.5504636
000230 0b 21 6e 3f 92 12 9b 3e 8b cb 0e bc bc af 9c 3f
       0.9301917 0.30287606 -0.008715521 1.224113
000240 0c 9d a5 3b 98 39 34 be 4f cc 4d 3f ad 84 fb 3e
       0.005054122 -0.17600095 0.80389875 0.4912466
000250 92 3d bc 3e 98 e8 ce 3e 20 8c cd 3f 12 e8 10 bf
       0.36765724 0.4041183 1.6058388 -0.5660411
000260 5e 20 f2 bc 96 30 6c 3e 40 02 9b 3f 2d a0 73 3f
       -0.02955645 0.23065409 1.2110062 0.95166284
000270 ba 88 53 3f e8 f6 0b 3f 46 cc 64 3f af aa 08 3f
       0.82630503 0.54673624 0.89374197 0.5338544
000280 53 d4 87 bc 73 9a da 3e 1e 59 39 bc 34 00 ef 3e
       -0.016580736 0.4269596 -0.011312751 0.46679842
000290 31 7c a1 3e c3 bb a2 3e 4f 57 a3 bb 4e 83 37 3f
       0.31540063 0.31783876 -0.004984773 0.7168473
0002a0 7d e5 ae 3f 2c c2 7e 3f 47 8d a0 3f d5 31 96 3d
       1.3663784 0.9951503 1.2543114 0.073337235
0002b0 d5 a8 93 3f 39 60 19 3f 28 0d 72 3f 65 71 a6 3d
       1.1535898 0.5991245 0.94551325 0.08127097
0002c0 63 a8 fb be fe 63 cf 3e e3 ea 1b 3f a6 f7 98 3f
       -0.49151906 0.40505975 0.60905284 1.1950576
0002d0 b0 bd a4 be 31 41 7d 3e 27 bb cf 3d b5 15 7a 3f
       -0.3217597 0.247319 0.10143118 0.9768937
0002e0 40 fd c6 3d c6 67 5e 3f ae d7 37 3e f9 00 80 3e
       0.09716272 0.86877096 0.17953369 0.25000742
0002f0 31 b4 d0 bb ac ca 7b 3e 89 5d 40 3f 5b 21 87 3e
       -0.0063691367 0.24589032 0.75142723 0.26392636
000300 16 19 17 3f 4b a7 0d 3f 13 14 e4 3e 38 7b 37 3f
       0.59022653 0.55333394 0.44546565 0.7167239
000310 69 16 71 3c b9 c4 3b 3f aa 3b 75 3f d3 91 c3 3e
       0.014714816 0.7334705 0.95794165 0.38197193
000320 0d 38 c3 3e 10 c2 61 3e d5 fd 34 3f 25 9b ab 3e
       0.381287 0.22046685 0.70699817 0.33516803
000330 e2 7e 60 bd 2f e1 e6 bc a1 e0 84 3f 9a 44 e8 3e
       -0.054808505 -0.028183548 1.0381051 0.4536484
000340 1d cb e9 3e f3 31 8a be 4b ba 3a be 1c 95 1e 3f
       0.45662776 -0.26991233 -0.18235128 0.6194627
000350 11 2c f4 3e 0f 2b cb 3e 3c 3d 77 3e 63 e8 a9 3e
       0.4768987 0.3968129 0.24144453 0.3318511
000360 bf 0e ee 3e 61 4b f9 3b 2a 9c 80 3f ce c7 a0 3e
       0.46495625 0.007607863 1.0047657 0.3140244
000370 35 da e9 bd 11 51 55 3f a7 53 f6 3d 49 84 7f 3f
       -0.11418573 0.8332682 0.12027674 0.99811226
000380 e7 0a 72 3e 99 ba e3 3e 9d 28 00 3f 45 c7 f1 bc
       0.23636971 0.444783 0.5006197 -0.029513964
000390 d6 9a f8 3e aa d1 8c 3e 7d 57 3f 3f 65 22 5f 3f
       0.4855563 0.2750371 0.7474287 0.87161857
0003a0 ad 84 30 3e 91 b2 a3 3e c8 a3 3e 3f 61 56 0a 3f
       0.17238112 0.31972173 0.7446866 0.54038054
0003b0 3f 42 64 3f 4c 3c 65 3f ea 8b 71 3e e4 92 70 3f
       0.89163584 0.8954513 0.23588529 0.9397414
0003c0 af 5a 67 3f bf 76 91 3e 54 29 02 3f 1c 23 93 3d
       0.9037275 0.2841091 0.5084431 0.07184431
0003d0 68 89 2f 3f 9c 95 ab 3c 21 bc 4b 3f ee 22 3b 3f
       0.6856904 0.020945363 0.79583937 0.73100173
0003e0 c7 e9 d3 be fe 6e e6 3e 2b 24 e9 bb c9 e7 cc 3e
       -0.41389295 0.45006555 -0.0071149073 0.40020588
0003f0 af a3 e7 bd f3 23 99 3f 6e a1 e0 be fd 0c 2a 3e
       -0.11310517 1.1964096 -0.4387316 0.16606517

bn.bias f4 [512]
000000 7e 4b 12 3f fd c9 57 bd 05 32 e9 3c 2f dc b6 3d
       0.5714644 -0.052682865 0.028466234 0.089287154
000010 39 11 14 bd e9 c5 0f be 22 9b 94 3c 29 a9 5d 3e
       -0.036149237 -0.1404034 0.01814038 0.2164656
000020 a9 a3 10 bf 8b c7 0b bf bb 79 fc 3e ea 70 83 3c
       -0.56499726 -0.54601353 0.49311623 0.016045053
000030 8e 0c 2f bb 17 f6 7f 3c 2e a0 e0 3d ea 76 89 be
       -0.0026710364 0.015622637 0.10968052 -0.26848537
000040 61 69 20 3d 41 48 8d 3e 70 6c a6 3c 47 ee 4b 3d
       0.039162997 0.27594188 0.020315379 0.049787786
000050 bd f4 4d be eb 3d dd bd ba d7 73 bd a5 2d 52 3f
       -0.20112891 -0.108028255 -0.059531905 0.821009
000060 ec c2 e7 3e 39 f4 d1 3c 60 37 48 be 88 e7 27 bf
       0.452659 0.02562915 -0.19552374 -0.65587664
000070 80 cc 3d bc 20 f8 0c bd 34 40 5c be 5f 1d be bd
       -0.011584401 -0.034416318 -0.21508867 -0.09282946
000080 e6 d2 76 3e cc cd d6 3c 77 4f cb 3e 80 f9 2d bd
       0.24103889 0.026221178 0.39709064 -0.04247427
000090 54 2b ac 3b ae 29 c2 3d aa ad 9c bc a3 f3 35 bf
       0.0052541886 0.09480606 -0.019125778 -0.71074885
0000a0 68 d8 73 3d 62 ef a4 3d af f6 f0 bd c7 e9 88 be
       0.059532553 0.08053471 -0.11765801 -0.26740858
0000b0 9b f4 ff bd a8 d1 d8 3d 1a d7 59 3f b5 2c 72 3e
       -0.12497827 0.10586864 0.85093844 0.23649867
0000c0 88 f0 7b 3e 85 d9 0b bf 51 b9 fd 3e cb a7 81 3e
       0.24603474 -0.54628783 0.49555448 0.25323328
0000d0 81 2c 43 bc 42 a3 41 3d 44 48 44 3d 15 1f 02 bc
       -0.011912466 0.047274835 0.04792048 -0.007941981
0000e0 b0 27 a8 be e2 98 02 ba 3b 65 9a 3e e8 aa f5 3e
       -0.3284278 -0.0004981888 0.30155358 0.47981954
0000f0 38 0f 15 be df 36 87 3e ba 86 34 bd 94 26 36 3e
       -0.14556587 0.2640905 -0.044073798 0.17788154
000100 5a 70 62 3b 21 85 99 3d 28 ea 81 3b 90 27 34 be
       0.003455183 0.074960954 0.003964681 -0.17593217
000110 59 22 3c 3d 52 ac 05 bf 12 95 8d 3d 11 0a de 3e
       0.045931194 -0.52216065 0.069131985 0.43367055
000120 4f 48 02 3f 12 99 38 3e a0 f1 e3 3d cc 19 95 bd
       0.50891584 0.18027142 0.11130071 -0.07280311
000130 a4 8c 29 3f 0b ab d5 3c 2b 14 8e 3e 12 2e e3 3e
       0.66230226 0.026082536 0.27749762 0.44371086
000140 66 57 b8 3d 7d da 6d be c4 18 02 3e 2f 93 2b 3e
       0.09001045 -0.23227878 0.1270476 0.16755365
000150 b2 8d 8c 3c ec ab 40 3e 27 8e ec 3e b3 e6 9a bd
       0.01715741 0.18815583 0.46202204 -0.07563534
000160 f1 ad 9a bc 91 77 df be f1 31 54 3b 9c 1e c4 3d
       -0.01888177 -0.4364591 0.00323784 0.09576151
000170 21 ed 3c 3c 9a 25 93 be bf 2f 06 be dd c9 1e 3e
       0.011531145 -0.28739625 -0.13104151 0.15506692
000180 2c 91 f5 bd 78 da fa be d3 77 b3 bd a4 54 b4 bb
       -0.1199058 -0.48994803 -0.08763089 -0.005503254
000190 6f 86 d3 3c e3 11 0c 3f cd 2a 38 3e 64 1b 94 bd
       0.025820939 0.5471479 0.17985077 -0.07231787
0001a0 a6 27 5d be 7a 3d 0f 3e 3e 50 ad 3e 81 a6 83 3d
       -0.21597156 0.13988295 0.33850282 0.064282425
0001b0 f7 95 de 3e e0 c0 04 bf d4 da 34 3e 0f ba 53 3f
       0.4347379 -0.51856804 0.17661601 0.8270578
0001c0 4e 94 ca 3b 65 2b a6 bc c2 05 bd 3d aa e9 81 bd
       0.00618223 -0.020284364 0.09229614 -0.06343396
0001d0 43 40 a1 bc 46 66 8f 3e de 16 4f bf 04 26 6b 3d
       -0.019683963 0.28007716 -0.8089427 0.0574093
0001e0 04 9a 11 bf d3 6c 1b 3e 8f b3 44 be 23 3f e7 3b
       -0.56875634 0.15178232 -0.19209121 0.007057087
0001f0 87 89 60 3d 1f d6 81 3e dc 8a 4a be ae 0d 33 3e
       0.054818656 0.25358674 -0.19779533 0.17485687
000200 74 ed e6 3d f0 c4 33 3e 47 ff 5e 3d 3e 43 57 bc
       0.11275759 0.17555594 0.05444267 -0.01313859
000210 9b 72 46 be 20 91 d9 bd 23 8c 06 bf 77 5d 4b 3f
       -0.19379656 -0.106233835 -0.5255758 0.7943949
000220 e4 ea 89 bd ad 41 26 ba d8 d3 ad bc da 9a e6 3d
       -0.06734255 -0.0006342184 -0.021219179 0.11260004
000230 b4 60 0e 3d 23 c6 8c 3d 8f 6c d4 3b 87 b5 e1 be
       0.034760192 0.06873729 0.0064826678 -0.44083807
000240 ea 0f 42 bb 2b 7c a7 3e df 97 93 3e be 6f 04 3f
       -0.0029611536 0.3271192 0.28826806 0.51733005
000250 36 1f 0d 3e e3 b5 82 3e 57 53 ab be 86 09 24 bd
       0.13781437 0.25529394 -0.3346202 -0.040048145
000260 54 d2 8a 3c 27 bb be be ab 57 58 bd 05 78 d0 3c
       0.016945995 -0.3725216 -0.05281798 0.025447855
000270 7a 90 c3 3e 74 ed 28 3e 9b 2c f1 3e d8 10 60 3e
       0.38196164 0.16496831 0.47104344 0.21881425
000280 db 71 ba bb 98 64 2a bf a6 5b 3a 3a f8 11 86 3e
       -0.005689842 -0.66559744 0.00071089936 0.26185584
000290 09 db 05 3d e5 f8 c1 3e 39 bc 15 3a a5 93 dd 3e
       0.03267959 0.37885204 0.0005711946 0.43276706
0002a0 ec c5 84 be 66 83 5c 3e ba f0 1b be e0 99 28 3d
       -0.25932252 0.215345 -0.15228549 0.04116237
0002b0 5b 5a df bd fd 0d 4c be e5 71 72 be 37 1f ee 3c
       -0.10905906 -0.19927211 -0.2367626 0.029067619
0002c0 d0 b3 20 bf 57 0b 9d 3e 20 bd bb 3e f6 50 75 3d
       -0.6277437 0.30672714 0.36667728 0.059891663
0002d0 16 34 b0 be 98 dc 15 bf fe 48 87 be d9 d1 49 3d
       -0.34414738 -0.58539724 -0.26422876 0.049272392
0002e0 1c 8b 00 3e 3f b8 0f 3e 2f f8 da 3e 82 54 06 be
       0.12553066 0.14035128 0.42767474 -0.13118175
0002f0 73 61 a8 3b d6 35 ff 3d e1 ec 3f 3e 18 aa 23 3e
       0.00513857 0.1246144 0.18742706 0.15982854
000300 8f c4 a0 3e 30 5a 9d 3e 6a e7 00 3f 2b 78 dd 3e
       0.31399962 0.3073287 0.5035311 0.43255743
000310 75 8a 6d bb e8 58 0d 3e 08 5c 24 3e df 7f d4 be
       -0.0036245857 0.13803446 0.16050732 -0.41503808
000320 39 91 58 3e 99 52 29 bf ac 0c 41 3f ef f7 e7 3e
       0.21149148 -0.6614166 0.7540996 0.45306346
000330 22 fd 5e bb c3 86 9b 3c ed de dd be 28 92 8d 3e
       -0.003402539 0.018985158 -0.4333414 0.2765057
000340 85 18 8a bc 6c fc 62 3e 49 ca be 3a bc 62 99 3d
       -0.016857395 0.22166604 0.0014556135 0.07489535
000350 04 86 42 3e e9 30 ee 3d e5 b6 ce 3e ef 40 fb 3e
       0.18996435 0.116304226 0.40373912 0.49072978
000360 dc 51 c7 be d0 56 bc 3b 36 07 0c bf 92 93 85 3e
       -0.3892964 0.0057476535 -0.54698503 0.2608915
000370 9d 75 50 bd 96 e2 df 3e e6 21 83 3e f4 84 67 3f
       -0.050893415 0.4372756 0.256118 0.90437245
000380 ff ad f5 ba 06 09 16 3e c5 11 4b bc e9 e7 9c 3a
       -0.0018743871 0.1465188 -0.012394373 0.001197097
000390 85 02 35 3e 55 91 b5 3d 0b eb 91 3d 4c f8 81 3e
       0.17676742 0.088656105 0.07124909 0.25384748
0003a0 4b e4 da 3b d6 60 dc 3d 69 4a f2 3d 3b 29 1d 3f
       0.0066800467 0.107606575 0.11830599 0.6139104
0003b0 b1 7c 19 3e 59 e5 e6 3c a4 cb 13 3d 29 a8 b7 3d
       0.14988972 0.028185533 0.03608288 0.08967621
0003c0 97 bd aa be 18 89 02 bd a2 6c c5 3c e1 ad db bc
       -0.3334777 -0.031869024 0.024099652 -0.02681631
0003d0 68 23 87 be e3 dd 9a ba 8b d1 7c 3d f7 66 e2 3c
       -0.263942 -0.0011815395 0.061723273 0.027636988
0003e0 dc aa 40 be 98 2e a3 be d2 c3 3c 3c de cd 48 3e
       -0.18815178 -0.31871486 0.011521297 0.19609782
0003f0 9b 23 e0 3e 7a d8 e8 be ae e2 17 3f 99 ee 7a bc
       0.43777165 -0.4547766 0.5933026 -0.015315675

bn.running_mean f4 [512]
000000 e9 2c fc 40 fd a0 1e 3d d5 05 f3 3f dd c0 10 41
       7.880482 0.03872775 1.8986155 9.047086
000010 a7 ce 14 3c 79 ef ee 3f de 37 3d 3f c4 62 fe 3f
       0.009082473 1.8666831 0.7391337 1.9873891
000020 76 95 13 41 8f 00 9f 3d b3 68 3f 41 a5 e5 7b 3e
       9.2239895 0.077637784 11.963061 0.24599321
000030 b6 d4 26 3f 98 3f 11 3f 9e ec 9f 40 f0 ad 34 3f
       0.6516832 0.5673766 4.997634 0.7057791
000040 3b b0 95 3c df 51 9d 3e 2f 58 cb 40 af e8 92 3f
       0.01827251 0.30726525 6.3545146 1.1477259
000050 e6 9b 8f 40 24 5a 94 3f 8e 96 67 40 2d 81 f6 40
       4.4877806 1.1590009 3.6185641 7.7032685
000060 ab b8 c4 41 4a c5 00 41 8b 06 22 3d 32 f7 10 3f
       24.59017 8.048166 0.03955702 0.5662719
000070 af 3e b3 40 bd 79 69 40 30 c3 56 3f 21 3d b2 40
       5.601402 3.6480553 0.8389158 5.569962
000080 aa c5 2b 40 c3 f4 6f 40 f1 a4 b5 40 85 cc 42 40
       2.6839395 3.749314 5.6763844 3.043733
000090 04 00 00 00 26 e4 14 40 dc 4a 66 40 d2 f9 43 40
       6e-45 2.326425 3.598319 3.0621228
0000a0 40 72 4c 3e 65 08 e8 3e 19 5b 8c 3d 88 84 d9 3f
       0.19965458 0.45318905 0.06853313 1.699357
0000b0 e2 65 6d 3d e2 0d 35 3f 0a 28 72 3f f5 16 4b 40
       0.05795849 0.7072431 0.94592345 3.1732762
0000c0 89 e5 ce 40 61 5e 88 40 b5 29 33 40 a6 d3 91 40
       6.4655194 4.261521 2.7994206 4.557086
0000d0 e3 b2 b6 3f 63 a3 33 3d 68 c5 1a 40 d3 d1 8e 3b
       1.4273342 0.04385699 2.4182987 0.004358509
0000e0 04 00 00 00 1b 62 a4 39 03 79 8b 3f 87 fb 3d 41
       6e-45 0.00031353612 1.0896305 11.873908
0000f0 f4 5b c4 3f b6 0a 31 40 34 4d 06 3f 15 8a 75 40
       1.5340562 2.7662787 0.5246155 3.8365529
000100 d9 95 ce 39 56 b6 69 3f fd 79 8c 3f fa e4 2b 3b
       0.00039403027 0.9129385 1.0974728 0.002622901
000110 44 cf f3 40 e7 3a 2d 3f b0 95 96 3f 13 07 27 41
       7.619051 0.67668 1.1764431 10.439227
000120 a3 c1 a4 3f 47 62 a9 40 4b 3f cd 40 2b 2c 4c 3f
       1.2871593 5.2932467 6.413976 0.79754895
000130 1d b3 f4 3f 17 4b 59 41 77 25 01 40 4c 9e 71 40
       1.9117161 13.5808325 2.0179117 3.7752867
000140 3c 06 75 3f ef c5 5d 3f 48 91 9d 3f 30 e8 13 3f
       0.9571264 0.8663015 1.2309961 0.57776165
000150 f9 ef 2c 3e bd f3 49 40 72 5c 58 40 ca 48 14 40
       0.16888417 3.1555016 3.3806424 2.3169427
000160 c2 7d 0c 40 a7 28 a9 3f 9d c2 1b 41 31 a8 03 40
       2.1951756 1.3215531 9.735013 2.0571406
000170 dd 1a 4e 3f cf fe f4 40 04 fa f3 3e e8 52 30 41
       0.8050974 7.6561046 0.47651684 11.020241
000180 ef e2 ab 3f 9a e1 e7 3f 6d b5 1d 40 93 f8 2d 3f
       1.342863 1.8115723 2.4641984 0.6795742
000190 86 64 09 40 b9 1b 19 41 00 e0 73 3e e9 8a c2 3f
       2.1467605 9.569268 0.23815918 1.5198642
0001a0 c8 23 2e 3d 2f 75 43 3d d1 8e 86 40 7b 51 2d 3e
       0.042514592 0.047719177 4.2049336 0.16925614
0001b0 66 5b 3e 41 8d 61 0f 3f 3f c0 d3 40 56 f1 f2 3e
       11.897314 0.56008226 6.6172175 0.4744975
0001c0 45 2b fa 40 05 7b 64 3f 7d 82 28 40 a0 1f b6 3f
       7.817782 0.8925021 2.6329644 1.4228401
0001d0 9a 42 29 3c 9d 14 4f 3f e1 4c e4 3f 47 34 03 3f
       0.01033082 0.8089083 1.7835962 0.51251644
0001e0 26 ad 14 41 b2 8d dd 3e fe a8 31 3f 0a 39 67 3c
       9.292273 0.43272167 0.69398487 0.01411272
0001f0 f0 20 6d 40 54 c6 ee 40 88 1b 93 3f 56 b3 50 3f
       3.7051353 7.46171 1.1492777 0.81523645
000200 e8 43 d4 3f f0 1e 42 3f d2 42 0a 40 a6 1f 50 3f
       1.6583223 0.75828457 2.1603284 0.8129829
000210 84 d9 2a 40 11 59 cb 40 0f be ef 3c 5c 71 d9 3f
       2.669526 6.3546224 0.029265432 1.698772
000220 b7 59 b1 40 e5 f7 44 3e d3 82 d9 40 a0 bf e8 3f
       5.5422015 0.1923519 6.7972198 1.8183479
000230 b0 f0 6e 3f 7d 61 73 3f e9 cf 3c 41 b3 4c 13 3f
       0.9333601 0.9507063 11.800759 0.5753891
000240 20 b3 9c 40 ef 73 4f 40 70 40 14 40 7c ce 79 40
       4.896866 3.241451 2.316433 3.9032278
000250 2d 25 9e 3e f9 48 5f 40 28 4c 03 40 14 cf 87 3c
       0.30887738 3.488829 2.0515232 0.016578235
000260 4f 6d ad 40 83 2b 18 41 83 25 87 3e 14 0c ef 3f
       5.4195933 9.510623 0.26395807 1.8675561
000270 5a c0 29 3f 27 2a fc 3f d3 ba 30 41 cf 65 ac 40
       0.6630913 1.9700364 11.045611 5.387428
000280 10 eb 14 40 f0 80 03 3f c9 f7 07 3f f9 87 41 40
       2.326847 0.5136862 0.53112465 3.023924
000290 76 fc 2e 40 cc 11 e0 40 3f 4b c3 3e e2 5c 15 41
       2.734159 7.0021725 0.38143346 9.335176
0002a0 e9 1c cb 3e 6d c7 0e 40 b2 7f 58 41 d8 2d ca 3e
       0.39670494 2.230922 13.531176 0.394881
0002b0 77 d4 69 40 54 21 20 3f 63 ef c1 40 bf 56 4d 41
       3.6535928 0.62550855 6.060472 12.833678
0002c0 92 5b 40 41 a4 e3 31 41 18 5c 74 3f 20 78 d7 3f
       12.022356 11.118076 0.95453024 1.6833534
0002d0 84 3e 8d 3f 63 b3 71 40 47 ab 07 3a 69 b7 b4 3c
       1.1034703 3.776574 0.00051753636 0.022060113
0002e0 85 5e 28 40 02 38 01 3f 07 c0 44 41 17 3d 34 3e
       2.630769 0.50476086 12.296882 0.17601429
0002f0 d1 02 a1 40 69 74 87 40 54 9a 07 40 7b c1 4f 40
       5.031594 4.23296 2.1187944 3.246184
000300 f1 ad 06 40 f0 7c bc 40 66 7a 2f 41 98 00 f3 3f
       2.1043665 5.890251 10.967382 1.8984556
000310 ea d7 37 41 96 db d9 3f 76 06 e7 3f 52 a2 05 40
       11.490213 1.7020137 1.8048847 2.0880322
000320 e3 74 78 40 e5 c8 ed 40 18 aa de 40 72 94 1a 41
       3.8821342 7.4307733 6.9582634 9.661242
000330 6d 49 cd 40 af b7 9f 3f 3f 78 ac 3f 67 05 09 40
       6.415213 1.2477931 1.3474196 2.1409547
000340 04 00 00 00 14 da 9a 41 5c 75 28 3e 58 4e d0 3d
       6e-45 19.356483 0.16451019 0.10171193
000350 a8 a6 ce 3f cd a2 17 40 45 d8 ff 3f 2b d1 ba 40
       1.614461 2.3693116 1.9987875 5.838033
000360 f8 b6 4f 3f 3a 31 8a 41 55 f5 d1 3e 25 ad 55 3c
       0.81138563 17.274036 0.41007486 0.013041769
000370 d8 d4 9e 40 fa 2d 0e 40 5b 0c 59 40 2b f1 47 40
       4.963482 2.2215562 3.391379 3.1240947
000380 1f 9e c1 3e f2 ee 8a 3c 04 00 00 00 2c a6 b2 40
       0.3781595 0.016959641 6e-45 5.5827847
000390 78 53 78 3f 27 e9 33 3d 18 57 0b 3f 55 df 40 3f
       0.97002363 0.043923523 0.5442977 0.7534078
0003a0 d6 43 0c 40 1d 14 26 3f 38 42 8a 3d 31 35 75 41
       2.1916404 0.6487444 0.067509115 15.325486
0003b0 44 80 ba 3f 37 64 84 37 3e 78 1d 3e db e6 ad 40
       1.4570394 1.5782292e-05 0.153779 5.4344306
0003c0 21 3b df 3f 54 b8 ca 3f 88 a3 12 40 ca 85 b1 40
       1.743992 1.5837502 2.2912312 5.5475817
0003d0 f4 09 9f 3e 35 49 7a 40 bd 05 2d 3c 9c 70 7b 3e
       0.3106228 3.9107182 0.01056045 0.24554676
0003e0 6a 59 1a 40 48 4c de 3e dd 1e 91 41 60 37 1c 40
       2.4117074 0.43417573 18.14007 2.4408798
0003f0 2c 0d 9a 41 ee 74 07 3f 82 be d6 40 6b 1a 2d 40
       19.256432 0.52912796 6.7107553 2.7047374

bn.running_var f4 [512]
000000 16 8e a4 42 c8 8e 8c 3e 55 b5 ed 41 6c ec a9 42
       82.27751 0.27452683 29.713541 84.96176
000010 45 8e 19 3c 23 8d 37 41 5a 2d bb 40 44 e6 b3 41
       0.009372299 11.471957 5.849286 22.487434
000020 da d9 81 42 2b 8a dd 3e 28 8d 64 42 01 0b e2 3f
       64.92549 0.43269476 57.137848 1.7659608
000030 8e 9e b5 40 2e ef c9 40 af 48 b2 42 aa f6 cb 40
       5.675605 6.3104467 89.14196 6.3738604
000040 b7 77 4f 3d 18 21 42 40 b4 08 af 42 f2 33 a1 40
       0.05065128 3.03327 87.517 5.037591
000050 81 45 d2 41 59 11 49 41 bc b5 30 42 b3 ec c0 42
       26.283937 12.566735 44.177475 96.4623
000060 dc c6 91 42 2d bb a7 42 8b 5d 7d 3e 20 10 53 40
       72.8884 83.86558 0.24742715 3.2978592
000070 b8 b6 be 42 d2 b2 fa 41 7b 58 bf 40 e7 ff 73 42
       95.35687 31.337315 5.979551 60.999905
000080 27 93 c2 41 c4 63 31 42 81 12 66 42 0d 9f bd 41
       24.321852 44.347427 57.51807 23.702662
000090 04 00 00 00 67 97 a1 41 7b 19 72 42 0d 51 08 42
       6e-45 20.198927 60.524883 34.07915
0000a0 29 65 8b 3f 0e 38 42 40 9d 66 06 3f 47 10 86 41
       1.0890247 3.0346713 0.52500325 16.757948
0000b0 e0 a7 a6 3e 76 79 b1 40 46 06 e6 40 7a 70 14 42
       0.32549953 5.546077 7.188266 37.10984
0000c0 ce dc 58 42 3e d0 2e 42 ed 78 8f 41 44 22 31 42
       54.21563 43.70336 17.934046 44.283463
0000d0 66 9b 44 41 0b b6 4c 3e 5c 35 d4 41 34 24 41 3c
       12.287939 0.19991319 26.526054 0.011788417
0000e0 04 00 00 00 e9 26 80 39 80 ac 20 41 a4 d0 42 43
       6e-45 0.00024443053 10.042114 194.815
0000f0 55 43 28 41 2e 70 9b 41 21 15 94 40 33 f6 3b 42
       10.5164385 19.429775 4.627579 46.99043
000100 76 5a db 39 35 5e f5 40 91 27 31 41 b6 a4 03 3c
       0.00041838334 7.66775 11.07216 0.008034876
000110 ad 66 9d 42 ba dc a7 40 e0 11 54 41 90 95 46 43
       78.70054 5.245694 13.254364 198.58423
000120 b3 2f 47 41 77 53 90 42 a7 18 35 42 e7 0c e7 40
       12.449145 72.16302 45.274075 7.220325
000130 d3 f9 6c 41 60 0f e6 42 b6 3d 8d 41 27 85 59 42
       14.810992 115.03003 17.655132 54.38003
000140 3e 23 02 41 df ce 13 41 56 84 bb 40 76 42 96 40
       8.133604 9.238006 5.8599043 4.695613
000150 e9 19 62 3f f6 d4 62 42 fa 51 31 42 ba a4 9e 41
       0.88320786 56.70797 44.330055 19.830433
000160 3c 0d cb 41 b7 83 14 41 c0 09 9a 42 74 6b ae 41
       25.381462 9.282157 77.01904 21.802467
000170 0b f2 d5 40 88 67 bf 42 da b5 10 40 9a 27 0d 43
       6.6857963 95.70221 2.2610993 141.1547
000180 66 a5 1a 41 93 c4 84 40 8a 07 bd 41 ab 2e 78 40
       9.6653805 4.148996 23.628681 3.8778484
000190 f2 5f b8 41 72 b6 34 43 34 9a 05 40 58 c9 9b 41
       23.046848 180.71268 2.0875368 19.473312
0001a0 4a a3 95 3e 5c c4 86 3e f0 e0 29 42 e0 6a 7e 3f
       0.29226142 0.26321685 42.469666 0.9938183
0001b0 69 51 1b 42 79 dd 73 40 ed f4 a1 42 87 48 47 40
       38.829502 3.8103926 80.97837 3.1138017
0001c0 5b 91 91 42 a8 78 21 41 90 32 c3 41 9b 2c 62 41
       72.7839 10.091957 24.399689 14.13589
0001d0 75 5a 59 3d 5e 88 09 41 fb 5d 5f 41 3d 35 3e 40
       0.053064782 8.595793 13.960444 2.9719994
0001e0 4f 28 d3 42 f4 fc 3c 40 7c d9 b8 40 96 b6 a8 3d
       105.57873 2.952939 5.7765484 0.082379505
0001f0 6a b0 1d 42 40 7c 39 42 35 d2 31 40 4d 93 10 41
       39.42228 46.371338 2.778455 9.035962
000200 fd 5d 8d 41 2d f4 d8 40 47 c9 c1 41 d0 08 00 41
       17.670893 6.7798066 24.22328 8.0021515
000210 6a 09 c7 41 81 82 99 42 70 6f 4e 3e 3b d9 72 41
       24.879597 76.75489 0.20159698 15.178035
000220 a4 29 89 42 d3 75 ad 3f 41 e6 97 42 b5 f9 56 41
       68.58133 1.3551582 75.949715 13.435964
000230 5d 5d 6e 40 02 86 17 41 2c f4 e8 42 b2 8f 4b 40
       3.7244484 9.470217 116.4769 3.1806455
000240 cf b6 8f 42 0d f8 f2 41 8e 24 02 42 17 1b 56 42
       71.85705 30.371119 32.535698 53.526455
000250 78 cc e8 3f a2 0f ff 41 d1 ac 3d 40 44 d8 4a 3d
       1.8187399 31.882633 2.9636729 0.049522653
000260 07 bb 86 42 09 00 cb 42 fe 19 01 40 b7 62 a2 41
       67.36529 101.50007 2.0172114 20.2982
000270 b5 87 bd 40 87 ce d0 41 33 46 be 41 a4 5b 6d 42
       5.922816 26.100843 23.784277 59.339493
000280 f1 5e 32 42 69 26 80 40 77 02 cd 40 df fb a0 41
       44.592716 4.0046887 6.406551 20.122984
000290 a5 34 26 42 8e 7b 79 42 e7 d0 65 40 1a 8b ac 41
       41.55141 62.37066 3.5908754 21.56792
0002a0 28 d0 18 40 54 f6 e9 41 71 7f 62 43 d9 09 b8 40
       2.3877048 29.245277 226.49782 5.751202
0002b0 74 6b 19 42 23 87 81 40 e7 7f 16 42 e8 af bc 42
       38.354935 4.047746 37.624905 94.34357
0002c0 3d 94 74 42 41 83 a5 42 1c f8 00 41 a6 47 29 41
       61.144764 82.756355 8.060574 10.579992
0002d0 f2 4d 22 41 71 82 18 42 e1 b9 80 3a 28 23 b7 3d
       10.14403 38.127384 0.0009821021 0.089422524
0002e0 30 2f c3 41 fe af 6f 40 6f 24 6d 43 3b 03 8b 3f
       24.39804 3.7451167 237.14232 1.0860361
0002f0 61 af bc 42 70 b2 9d 42 ca 11 c0 41 45 67 3f 42
       94.34254 78.84851 24.008686 47.85085
000300 a0 8c b3 41 92 86 ba 42 5c bc 89 42 74 82 a7 41
       22.443665 93.26283 68.86789 20.938698
000310 f1 fd f8 42 8f a0 69 41 ef 2c 88 41 ce e0 8a 41
       124.49598 14.601699 17.02194 17.359768
000320 d2 79 78 42 8f a0 cf 42 f0 ef 9c 42 a9 36 30 43
       62.118965 103.81359 78.46863 176.21352
000330 66 b2 bd 42 61 e6 9d 41 63 1f 20 41 92 2c a6 41
       94.848434 19.73749 10.007663 20.771763
000340 04 00 00 00 7e ea 27 42 ee 1d 94 3f 3b de 63 3f
       6e-45 41.978996 1.1571634 0.8901097
000350 c4 7b 8a 41 28 00 10 42 c5 64 bf 41 4f 3e de 42
       17.310432 36.000153 23.924204 111.1217
000360 c9 db e5 40 12 59 4d 43 64 d2 17 40 84 bc a4 3d
       7.1830792 205.34793 2.3722162 0.08043769
000370 d0 67 9b 42 ae a8 b2 41 05 de 14 42 db 3d 0e 42
       77.70276 22.332363 37.216816 35.560406
000380 68 44 58 40 a2 86 04 3e 04 00 00 00 1c 72 9e 42
       3.3791752 0.12941983 6e-45 79.22287
000390 ed 0f c4 40 b2 42 22 3e 6a a2 8b 40 38 28 ea 40
       6.126944 0.15845755 4.363576 7.3174095
0003a0 15 25 8e 41 73 97 a7 40 e7 d3 c3 3e 27 ce 0d 42
       17.768106 5.2372375 0.38247606 35.45132
0003b0 d2 c2 64 41 eb ff 79 37 09 b0 35 3f 7a 51 e9 41
       14.297564 1.4901142e-05 0.70971733 29.164783
0003c0 d7 5a 3f 41 22 d7 84 41 1c ec d3 41 06 c6 60 42
       11.959678 16.605045 26.490288 56.193382
0003d0 d2 bf 00 40 85 cc 2e 42 15 49 0a 3d a9 45 0f 40
       2.0117078 43.699726 0.033761103 2.2386267
0003e0 e1 32 d9 41 9b 24 36 40 82 49 28 43 47 8a c7 41
       27.149843 2.8459842 168.28714 24.942518
0003f0 6f 91 02 43 9a 82 8e 40 c0 86 9d 42 79 ba 0a 42
       130.5681 4.4534426 78.76318 34.682102

fc2.weight f4 [256, 512]
000000 11 0f f0 be 7a 15 07 be 27 17 cd bd b2 6b 90 bd
       -0.46886495 -0.13191786 -0.100141816 -0.07051791
000010 52 8f 5f 3e 77 a6 18 3e 9c 48 b3 bd e3 aa 31 3e
       0.21832016 0.14907251 -0.087540835 0.17350344
000020 b4 d3 a0 3e 98 c8 a4 3e 5e cc 13 bd 88 2a db 3e
       0.31411517 0.3218429 -0.03608357 0.42805886
000030 a2 5e b1 3e 5a e0 cf 3d 5e 47 9f be 42 4b 05 3e
       0.34642512 0.101502135 -0.31109136 0.1301699
000040 60 c7 1a 3e 09 b3 96 be 43 09 49 3e f9 8b c8 3d
       0.15115118 -0.29433468 0.1963244 0.09792323
000050 5d 4a 05 3e 64 52 8c 3e ab d9 92 bd 47 64 eb be
       0.13016649 0.2740661 -0.07170423 -0.45974943
000060 da 25 03 be 18 7f ad be a0 69 ff 3d ae f0 0f 3f
       -0.12807408 -0.33886027 0.12471318 0.56226623
000070 51 31 b9 3e 30 e9 5d bd 3e 09 ad 3d c8 10 0e 3f
       0.36170438 -0.054177463 0.084490284 0.55494356
000080 58 cf 82 3d c2 76 15 3e 73 0b cd bd 85 19 b9 b9
       0.06387204 0.14596084 -0.100119494 -0.00035304963
000090 21 2f 50 3b a4 fe 37 3d ad 13 8a 3d 35 97 17 3e
       0.0031766372 0.04492058 0.06742034 0.14803775
0000a0 c8 41 17 3e b8 35 15 be ce 80 c1 3e ac b0 2a be
       0.14771187 -0.14571273 0.37793583 -0.16668957
0000b0 4e c4 e9 3e 32 c9 df 3c 85 05 f3 3d be a9 96 be
       0.4565758 0.027317617 0.11866287 -0.29426378
0000c0 02 b7 5c be 18 82 5c be 53 ef ee 3c 3e 2c b4 bd
       -0.21554187 -0.21534002 0.029166853 -0.08797501
0000d0 82 f2 0d bd 6a 29 70 be 1e 92 3f be 1d 45 05 be
       -0.0346551 -0.23453298 -0.18708083 -0.13014646
0000e0 63 d7 cc 3e fc 86 a2 3e db 8e 4f be ef 1d ba be
       0.40008077 0.3174361 -0.20269339 -0.36350963
0000f0 da b2 ea 3d 3a 74 96 3e e1 d0 e6 3d b3 b5 b4 3d
       0.114598945 0.2938555 0.11270309 0.08823719
000100 5c 7a a6 3d d5 a5 92 bc 39 cb dc bd 16 75 96 3e
       0.08128807 -0.01790134 -0.10780949 0.29386204
000110 22 ed 3b be 75 f2 da 3e 4c a2 52 3e 55 43 ab bd
       -0.18352178 0.42763105 0.20569724 -0.08362452
000120 b4 c3 14 be 46 16 63 3e 87 a4 b3 be 6b 18 91 bd
       -0.1452778 0.22176465 -0.35086462 -0.070847355
000130 c0 b6 9f be d4 48 e0 bb 42 b2 29 be 3d 4f a6 bc
       -0.31194115 -0.0068446193 -0.16571906 -0.020301456
000140 02 49 b4 3d df 9a 15 3d b9 8b 35 3e 86 d4 81 be
       0.08802988 0.03652465 0.17729081 -0.25357455
000150 69 7e 75 3d a0 d7 bb 3e c0 cd 55 be 8a cd 25 3e
       0.059935007 0.36687946 -0.20879269 0.16191688
000160 17 1c 28 3e a8 60 18 be 45 f1 88 3d ab 65 45 3e
       0.16416965 -0.14880621 0.066866435 0.19277065
000170 3a 1a a7 bd 58 b7 30 3e 06 6d 15 3e d7 55 0e be
       -0.08159299 0.1725744 0.1459237 -0.13899933
000180 8e 03 8d 3e 19 b6 a6 3e 20 d1 9a 3e b1 26 fb 3d
       0.27541775 0.32560804 0.30237675 0.12263239
000190 35 9d ab 3c 7a e3 1b bf 30 e8 25 be 63 3a c4 3d
       0.020948986 -0.60893977 -0.16201854 0.09581449
0001a0 d4 11 a3 3d c8 8e f5 3e 0e 64 30 be b7 d6 41 bc
       0.07962385 0.47960496 -0.17225668 -0.011830977
0001b0 2e 76 45 be 77 48 ce 3e ec 65 31 3d 37 50 b8 be
       -0.19283363 0.4028966 0.04331009 -0.359987
0001c0 27 a3 aa be c3 89 33 bd a1 d1 35 3e 41 20 b8 3e
       -0.333276 -0.04383255 0.17755748 0.35962108
0001d0 c6 db 0d 3f f7 79 a6 3e 51 76 8f 3d 5d a8 b6 3e
       0.5541347 0.32514927 0.07004989 0.35675326
0001e0 e4 8f ec bc 89 cb 36 3d c3 ee be 3e c7 82 6b bd
       -0.028877206 0.0446277 0.37291536 -0.057497766
0001f0 44 2e 84 3c 4d e4 ad be a5 33 8d 3d 5d e7 b9 bc
       0.016135342 -0.33963242 0.06894616 -0.02269333
000200 54 f4 0d 3e 9e 82 d8 3c 63 27 a3 bd 4d 7b 30 3e
       0.13862735 0.02642947 -0.07966497 0.17234536
000210 cf 89 ff 3e ba 71 5f 3e d8 7f 48 3f 64 52 93 be
       0.49909827 0.21820727 0.78320074 -0.28773797
000220 ee 58 b0 3d 0c 39 95 3e 92 b2 7d 3e 1a 76 15 3e
       0.08610712 0.29145086 0.2477515 0.14595833
000230 71 03 eb 3c cf 8b a2 3d a9 4a 85 3d fc 85 46 3f
       0.028688164 0.079368226 0.06508381 0.77548194
000240 a7 20 9e 3e c3 14 b8 be 3b a1 58 3e 51 c7 a5 be
       0.30884287 -0.3595334 0.21155255 -0.3237863
000250 2c ae bb 3d 64 60 ae bc e8 95 86 ba 69 20 7b bd
       0.0916408 -0.021286197 -0.0010268064 -0.061310206
000260 b4 b2 8e 3d 0f ea e5 3d d6 56 a8 3d ac 28 0c 3e
       0.06967679 0.11226284 0.08219688 0.1368739
000270 23 8c 3f be 6a c9 90 3d 5a 99 a7 be 79 b5 b2 3b
       -0.18705802 0.07069667 -0.32734185 0.005453762
000280 05 d9 b8 bc a9 a4 75 3e c7 a2 8e 3e 83 ee c2 bd
       -0.02256442 0.23988594 0.27858564 -0.09518149
000290 60 ed 9c 3e 79 de 1e bd 6c 8f 65 be e2 03 92 be
       0.30649853 -0.038786385 -0.22417992 -0.28518587
0002a0 12 e0 1b 3f 84 cf 15 3e c6 00 19 3e 9b c3 c1 bd
       0.6088878 0.14629942 0.14941701 -0.09461137
0002b0 5f 27 7b bd a2 f0 ea 3e 3a 21 3e be 42 e2 62 3e
       -0.061316844 0.45886713 -0.18567362 0.22156623
0002c0 27 eb 13 3f 23 5e 22 be 3e 22 a6 3e 0f 2c 85 3c
       0.5778069 -0.15856223 0.32448 0.01625636
0002d0 f1 49 b1 3e 2e 5a 94 3e fa 69 98 3e 8d e9 91 3d
       0.34626725 0.28975052 0.29768354 0.071246244
0002e0 09 57 38 be e1 bc 77 3e c7 ba 98 be 6d 64 c1 3e
       -0.18001951 0.24193145 -0.2983 0.3777193
0002f0 da 7a 90 3c f9 aa 2f be 37 b3 7b bc 3b 67 02 bf
       0.017636705 -0.17155065 -0.015362552 -0.5093877
000300 cb 80 20 be 2a ca 85 3c fc b5 13 bf 31 99 35 be
       -0.1567413 0.01633175 -0.5769956 -0.17734219
000310 5c 40 84 3e 9a 93 ee bd 43 45 c2 3d 35 e2 cc 3e
       0.25830352 -0.116492465 0.09485867 0.40016332
000320 38 2f 86 3d 5e e4 b1 3e 66 c6 a3 be 85 2c f7 be
       0.06551975 0.34744543 -0.31987303 -0.48276153
000330 91 b3 22 3e cd 2a 5d be ff 30 ba 3e 77 5b 5a be
       0.15888812 -0.21598358 0.36365506 -0.21323954
000340 e8 f2 81 3e 20 6c 1c 3c 47 d5 a6 3d bf ad 36 3e
       0.25380635 0.009547263 0.08146148 0.17839716
000350 ec 09 03 3f 4f b4 5b 3d b3 da 72 be 99 ab 75 be
       0.51187015 0.053638753 -0.2371624 -0.2399124
000360 53 71 2d 3e 39 39 e0 bc b9 db d6 3d 58 95 2e be
       0.16937761 -0.027371036 0.104911275 -0.17049158
000370 66 bf 9a 3d 8c f0 d4 be 15 48 a0 be c8 02 cf be
       0.075560376 -0.41589773 -0.31304994 -0.4043181
000380 a8 6f 9e 3e bb 96 7b 3d a9 5f 23 3e c0 4e 3d bd
       0.30944562 0.061423045 0.1595446 -0.04621768
000390 61 ae 93 3c a7 92 1a be 8a 52 9b 3d 1a 53 50 bb
       0.018027486 -0.15095006 0.075841025 -0.0031787814
0003a0 d8 83 8f 3d 66 84 b6 bd 18 77 81 3e 3e 1c ad be
       0.07007569 -0.08911972 0.25286174 -0.3381061
0003b0 8f 5f 07 be b8 a3 89 3e f3 b1 18 3d d0 e4 67 be
       -0.13220046 0.2688272 0.03727908 -0.22645879
0003c0 f1 a6 7c 3e 7f 4b 31 3d 41 15 b4 3e 05 8c 08 3e
       0.24673058 0.04328489 0.35172465 0.13334663
0003d0 bb 5b 1f 3e 01 06 0a 3e d4 62 d3 be 04 3e ac 3e
       0.15562336 0.13478853 -0.41286337 0.33641064
0003e0 49 3d 27 3e ad e9 ff 3d ad ef 7c 3c 1d d8 2d 3d
       0.16331972 0.12495742 0.0154380025 0.04244243
0003f0 17 99 cb be 22 54 46 3e 08 f0 a2 3d e6 53 1d 3e
       -0.39765236 0.19368032 0.079559386 0.15364036
